src/loss/perceptual_segm_pu.pt (torch, 459675 bytes, 20 tensors)

model.ds_path.0.0.weight f4 [32, 3, 3, 3]
-0.0069887363 0.0034266282 0.06878158 0.05000209 0.2450546 -0.06551496 -0.23640235 0.011654112
-0.014034208 0.3007803 0.19572325 0.4970369 0.19694011 0.34053436 0.67466927 0.0022703323
-0.043230385 0.53129786 -0.17766328 -0.6762923 -0.18222778 -0.52714705 -1.5083497 -0.6140135
0.25871518 -0.87510616 0.1173594 0.12551022 0.29615897 -0.12197294 0.14422181 0.4219097
0.296197 0.09687404 0.3340778 -0.16433461 -0.9895296 -0.9873963 -0.87661177 -0.787357
-1.2192973 -0.7472073 -0.7288915 -0.91138476 -0.4962772 0.31268448 0.22172858 0.37872174
0.44717023 0.5474546 0.41887516 0.022848146 -0.1049079 0.2808808 0.7530542 -0.20386556
-0.6535168 0.7643479 -0.020370618 -0.63561714 0.55395985 -0.24917805 -0.31986696 -0.13923277
-0.8286964 0.83032477 -0.0038230498 -0.90341216 0.43190914 0.35428834 -0.10033042 0.35823533
0.3680981 -1.0993818 0.9894221 0.42455786 -0.96619433 0.92965174 -0.03795764 -0.8678408
0.21801987 -0.48629725 -0.2134888 -0.10393527 -0.18711549 -0.12364881 -0.0009226141 0.5313501
0.23596631 0.33916286 0.41023332 0.70300525 0.53771937 0.3370637 0.06825522 0.35533395
-0.4925489 -0.89350945 -1.0645651 0.20262961 0.8505 0.58836144 0.41060844 0.33184728
0.59365743 -0.57392114 -1.0103801 -1.4036772 -0.19791523 0.2432893 0.35769087 -0.19971053
0.24289149 0.4155186 0.21435948 0.37605318 0.24921204 -0.18492667 -0.484275 -0.72845274
-0.25106117 -0.5111661 -0.5532455 -0.41205132 -0.5471441 -0.6664455 0.015208897 0.4466096
0.36191562 0.3426516 0.6003225 0.62945294 -0.1855097 0.116210476 0.2990024 -0.18355833
-0.27236038 -0.2895323 0.0570792 -0.17904109 -0.5392423 0.049542878 0.077858016 0.060881212
-0.21103889 -0.24744076 -0.1987477 0.08149655 -0.31036648 -0.4255451 -0.34231994 -0.06343087
0.10897172 0.32802668 0.3490447 0.54470474 0.30556118 0.5899522 0.23808241 0.080178685
0.06801005 0.15634722 -0.7596211 0.42650393 0.31519634 -1.2097691 0.77849483 0.5120114
-0.5155604 0.393033 0.053110253 -0.7144304 0.3445954 0.13747452 -0.9984363 0.8514424
0.29082394 -0.7926153 0.52384394 0.34838673 -0.28648454 0.33104938 0.12524703 -0.9179095
0.6563032 -0.09736633 -0.25731015 0.36645436 0.046847746 -0.2010649 -0.73014003 -0.16987179
0.34331396 -0.038351588 0.51551294 -0.06810531 -0.4745538 -0.22151232 0.37197152 -0.7431886
0.33665574 -0.7548805 -1.2465637 0.34469405 -0.053614177 -0.6431385 -0.3066083 -0.05071541
-0.69618803 -0.10990064 -0.012678488 -0.3675307 0.5004071 0.7388621 0.528698 0.4200782
-0.2333171 0.7747117 1.2262106 -0.77224034 -0.03355719 0.40629295 -1.4355452 -0.18741919
0.11967053 -0.3173098 0.2761118 0.7648595 -0.65907174 0.16265514 0.24415396 -1.1183248
0.155772 0.26453623 0.24785782 0.49124748 0.67673457 -0.66232014 0.044160973 -0.102198966
-0.97273946 0.18824911 0.058820788 -0.3095112 -0.55181533 0.0024226673 -0.55235434 -0.72555876
-0.24553399 -0.5071294 -0.6782971 -0.15786609 0.20793629 0.44331586 0.6224054 0.4368483
00000000: c501 e5bb 4891 603b 5bdd 8c3d fece 4c3d
00000010: 98ef 7a3e b52c 86bd 7513 72be e3f0 3e3c
00000020: bcef 65bc e0ff 993e ad6b 483e 9f7b fe3e
00000030: abaa 493e 855a ae3e 20b7 2c3f dbc9 143b
00000040: 5812 31bd 2303 083f 5ded 35be 7e21 2dbf
00000050: eb99 3abe 1cf3 06bf 9a11 c1bf fd2f 1dbf
00000060: 5176 843e f506 60bf 205a f03d c085 003e
00000070: 26a2 973e f3cc f9bd e2ae 133e 8c04 d83e
00000080: 22a7 973e e665 c63d 3f0c ab3e 5547 28be
00000090: d051 7dbf 01c6 7cbf a169 60bf 3a90 49bf
000000a0: ef11 9cbf fa48 3fbf a298 3abf 8350 69bf
000000b0: 0c18 febe 2e18 a03e d10c 633e d1e7 c13e
000000c0: 7ff3 e43e fc25 0c3f ce76 d63e 092c bb3c
000000d0: f4d9 d6bd 9ccf 8f3e 29c8 403f 22c2 50be
000000e0: e14c 27bf 4eac 433f 48e0 a6bc ceb7 22bf
000000f0: 50d0 0d3f 8828 7fbe 9ac5 a3be 0993 0ebe
00000100: 7325 54bf 2a90 543f 228c 7abb 0546 67bf
00000110: 3223 dd3e 4865 b53e 097a cdbd 9f6a b73e
00000120: 5b77 bc3e 8bb8 8cbf c44a 7d3f a65f d93e
00000130: 8358 77bf a8fd 6d3f 7879 1bbd d12a 5ebf
00000140: 9a40 5f3e f4fb f8be cf9c 5abe 04dc d4bd
00000150: 349b 3fbe 963b fdbd 96db 71ba 8f06 083f
00000160: 27a1 713e c1a6 ad3e 1a0a d23e 27f8 333f
00000170: faa7 093f 9d93 ac3e 65c9 8b3d 55ee b53e
00000180: 5f2f fcbe 09bd 64bf ab43 88bf 237e 4f3e
00000190: 5eba 593f db9e 163f 453b d23e e3e7 a93e
000001a0: eff9 173f 7fec 12bf 2354 81bf b2ab b3bf
000001b0: 4aaa 4abe d520 793e 4223 b73e eb80 4cbe
000001c0: 8cb8 783e dbbe d43e 0d81 5b3e 0b8a c03e
000001d0: 7131 7f3e 6b5d 3dbe e5f2 f7be e17b 3abf
000001e0: 178b 80be c8db 02bf 7fa1 0dbf 64f8 d2be
000001f0: a311 0cbf 2c9c 2abf bd2e 793c 03aa e43e
00000200: 014d b93e 0870 af3e bcae 193f d423 213f
00000210: 41f6 3dbe c2ff ed3d d816 993e b7f6 3bbe
00000220: d272 8bbe 943d 94be e1cb 693d 8c56 37be
00000230: c90b 0abf 79ed 4a3d 0674 9f3d 945e 793d
00000240: 941a 58be 1c61 7dbe 8484 4bbe aae7 a63d
00000250: 5be8 9ebe 0ce1 d9be 8f44 afbe 0be8 81bd
00000260: 912c df3d 1df3 a73e fdb5 b23e c571 0b3f
00000270: 8472 9c3e 1b07 173f e0cb 733e b934 a43d
00000280: da48 8b3d 7c19 203e 8776 42bf b95e da3e
00000290: 6a61 a13e b7d9 9abf 704b 473f 2e13 033f
000002a0: c4fb 03bf 9f3b c93e 238a 593d e9e4 36bf
000002b0: cf6e b03e 1fc6 0c3e 8599 7fbf 21f8 593f
000002c0: e0e6 943e d6e8 4abf a31a 063f bf5f b23e
000002d0: 1aae 92be 4e7f a93e c240 003e 1efc 6abf
000002e0: 7d03 283f 0068 c7bd 28be 83be e89f bb3e
000002f0: 6ce3 3f3d f5e3 4dbe 75ea 3abf dff2 2dbe
00000300: d9c6 af3e 8e16 1dbd a8f8 033f cc7a 8bbd
00000310: b7f8 f2be 20d4 62be 0d73 be3e 9c41 3ebf
00000320: 245e ac3e d93f 41bf 668f 9fbf bd7b b03e
00000330: 8a9a 5bbd baa4 24bf c3fb 9cbe f6ba 4fbd
00000340: 6139 32bf 9613 e1bd 6fb9 4fbc fc2c bcbe
00000350: ae1a 003f 1126 3d3f c158 073f 7d14 d73e
00000360: aeea 6ebe 8253 463f 78f4 9c3f 8bb1 45bf
00000370: 4473 09bd a105 d03e f2bf b7bf d1ea 3fbe
00000380: d315 f53d 6e76 a2be 875e 8d3e d5cd 433f
00000390: edb8 28bf 128f 263e 7f03 7a3e 4425 8fbf
000003a0: b282 1f3e 4b71 873e 71ce 7d3e ca84 fb3e
000003b0: 7a3e 2d3f d08d 29bf 23e2 343d b14d d1bd
000003c0: 7405 79bf 60c4 403e 11ee 703d 4178 9ebe
000003d0: c543 0dbf 9dc5 1e3b 1867 0dbf 38be 39bf
000003e0: 436d 7bbe 3bd3 01bf e1a4 2dbf a6a7 21be
000003f0: 40ed 543e 4cfa e23e f655 1f3f 95aa df3e

model.ds_path.0.0.bias f4 [32]
0.02395573 -0.027925108 -0.017394995 0.00017821892 0.07472382 0.07901034 -0.0059123505 0.46966422
-0.10711168 0.02057536 0.022489343 0.25494245 0.03372725 0.011547775 -1.4016901 -0.00065863354
0.03882403 -0.20263405 -0.108707644 0.029218404 -0.014957164 -0.907016 0.09907992 -0.86424494
0.2531881 0.7490779 0.11013127 0.1959195 0.0059362734 -0.04884369 0.037980836 0.20265076
00000000: cf3e c43c 32c3 e4bc f37f 8ebc 47e0 3a39
00000010: cd08 993d 2cd0 a13d 64bc c1bb d477 f03e
00000020: 5e5d dbbd a88d a83c 923b b83c d187 823e
00000030: 9625 0a3d e132 3d3c 956a b3bf 26a8 2cba
00000040: f205 1f3d 4d7f 4fbe 1da2 debd 6f5b ef3c
00000050: e50e 75bc 3332 68bf 6aea ca3d 283f 5dbf
00000060: dfa1 813e 92c3 3f3f 818c e13d 1f9f 483e
00000070: 1285 c23b 5210 48bd cb91 1b3d ae83 4f3e

model.ds_path.1.0.weight f4 [32, 32, 3, 3]
1.0887768 -0.30634972 -0.43024454 1.5225124 0.9694467 -0.12614733 -0.017232556 -0.6310142
-0.4467735 0.07269943 -0.08099828 -0.75503063 -0.6183176 0.7097609 -0.35614976 0.17317308
0.20377675 -0.8400222 0.02389239 0.5914737 0.331319 0.3876142 0.56602335 0.08117908
0.78947425 -0.4831863 -1.8088937 -0.32366058 -0.23684493 -0.026281882 1.7902093 -1.6813804
0.5733123 -0.5838198 0.59188795 1.5434322 0.27486446 0.64104366 0.85983694 0.07853604
-0.2917883 0.108755656 -0.007584883 -0.28163892 0.6955931 0.34831426 0.014591981 -0.8238111
0.5330177 0.20735544 -0.636234 -1.3043433 -0.3408937 -1.241847 1.1158361 0.68702626
0.60419625 -0.22737107 0.8958621 0.5980206 0.29130557 -0.25794905 0.072575554 0.4146867
0.8330653 0.1668522 -1.2840601 0.7787941 0.2634387 0.33637854 0.9391381 0.8127268
0.03148179 0.016810609 -0.7379278 -0.9143265 0.41169035 0.44180036 -1.1125478 -0.9929308
-0.8966452 -0.21742868 -0.14056662 -0.29167432 -0.07457147 0.11453869 0.11731546 -0.5496868
-0.63117665 -0.9556593 0.2458542 -0.6351497 -0.69199246 0.56824225 0.81666213 0.51411307
-0.27150837 0.13700564 -0.31726366 -0.9139254 -0.26594257 -0.57709634 0.22276738 0.6392726
0.60000396 0.11876502 0.41237977 0.37151903 0.15282197 0.5238998 -0.33503845 0.8541976
1.1400353 0.08304942 0.71429735 0.30498472 -0.10103987 -0.0013038223 -0.020877732 0.4381327
-0.5790362 -0.17142105 0.38905355 -0.15288015 -0.048733234 -0.19397378 0.84596324 0.82809776
-1.1945097 0.8864312 -1.4030206 -2.1350121 -0.2075705 -0.029203946 -0.5298272 0.75035185
0.3748879 0.8027098 -0.01530211 0.5057417 -0.7060312 0.5142588 0.083255455 -1.3956743
0.059503052 0.47372818 -0.035218604 0.21149722 0.6210109 0.02347693 -0.28726113 -0.09143872
-0.49100572 0.30494878 0.039499015 -0.016074859 0.55717516 0.44098225 0.1608053 0.45216948
0.28445154 -0.025717052 0.6656504 0.7938672 0.67519194 0.22715792 -0.04694713 -0.19981593
0.54730684 0.12070991 0.052983675 -1.3083684 -0.5666966 0.17950001 -0.13067952 -0.24647652
-0.28863576 -0.015991649 -0.3648993 0.16856147 -0.2850787 -0.27477226 0.37145114 0.0390002
0.4721188 -0.27500227 0.42960724 -0.4953212 1.1330594 -1.5455074 -1.1587383 0.072133064
-0.70141697 -1.801509 0.33482724 1.1621379 0.38410014 0.7084442 -0.70129323 -0.262034
0.20933096 -0.5565974 -0.1040056 0.049132667 -0.018624464 0.38865474 0.21040095 0.8887627
0.6309538 0.23505177 -0.3260868 0.26143357 0.12160838 -1.1049296 -0.26496848 -0.7725206
-0.998869 -0.06119756 -0.2961601 -0.9562964 0.5108708 -0.9242105 -0.27662328 1.0976453
-0.20292714 0.70723814 -0.120777786 -0.029796707 0.06361172 -0.32488108 -0.5851993 0.7306394
-0.23242904 -0.32142302 -0.059003815 0.6085174 0.8025104 -0.20284942 0.10619632 0.41184393
0.058414303 1.0421788 1.5401161 -1.2323469 -0.7990611 0.3772473 -1.9742789 -0.39601973
0.123555295 -0.8099079 0.472408 0.4877225 0.020208787 0.5916702 0.7030409 -0.41828087
00000000: 0a5d 8b3f dfd9 9cbe 0349 dcbe b0e1 c23f
00000010: a92d 783f c42c 01be 4a2b 8dbc 268a 21bf
00000020: 7fbf e4be 70e3 943d 6de2 a5bd b049 41bf
00000030: 104a 1ebf e4b2 353f 4359 b6be 4954 313e
00000040: daaa 503e b20b 57bf f9b9 c33c d26a 173f
00000050: a5a2 a93e 5e75 c63e e8e6 103f 3841 a63d
00000060: fc1a 4a3f 3264 f7be d489 e7bf d7b6 a5be
00000070: 7a87 72be 1a4d d7bc 9425 e53f 7937 d7bf
00000080: 98c4 123f 3775 15bf f885 173f 308f c53f
00000090: 09bb 8c3e 701b 243f 461e 5c3f 81d7 a03d
000000a0: 4765 95be 49bb de3d 9c8a f8bb fa32 90be
000000b0: 6412 323f 3f56 b23e 3413 6f3c 49e5 52bf
000000c0: d973 083f fc54 543e 3be0 22bf b9f4 a6bf
000000d0: 9e89 aebe d8f4 9ebf b8d3 8e3f f4e0 2f3f
000000e0: 9bac 1a3f f6d3 68be 3857 653f e117 193f
000000f0: 0126 953e e611 84be 7ea2 943d d151 d43e
00000100: c443 553f 4edb 2a3e 155c a4bf 0d5f 473f
00000110: 70e1 863e cf39 ac3e 5b6b 703f dd0e 503f
00000120: 0df3 003d 67b6 893c d6e8 3cbf 4d11 6abf
00000130: 14c9 d23e a833 e23e f767 8ebf b730 7ebf
00000140: 8a8a 65bf a0a5 5ebe b2f0 0fbe 5656 95be
00000150: edb8 98bd 4393 ea3d 1743 f03d 46b8 0cbf
00000160: cb94 21bf 16a6 74bf 34c1 7b3e 2c99 22bf
00000170: 6b26 31bf 5378 113f c510 513f ea9c 033f
00000180: 2503 8bbe 354b 0c3e 6270 a2be 04f7 69bf
00000190: a029 88be 96bc 13bf 221d 643e 5ea7 233f
000001a0: dc99 193f 133b f33d 7123 d33e be37 be3e
000001b0: 5d7d 1c3e 4c1e 063f 298a abbe b2ac 5a3f
000001c0: adec 913f d015 aa3d 31dc 363f f526 9c3e
000001d0: feed cebd 04e5 aaba c707 abbc ee52 e03e
000001e0: b73b 14bf 0089 2fbe 0732 c73e 9d8c 1cbe
000001f0: 809c 47bd 10a1 46be 0c91 583f 37fe 533f
00000200: b2e5 98bf 28ed 623f 2e96 b3bf 0aa4 08c0
00000210: 5c8d 54be 1d3d efbc c1a2 07bf 0f17 403f
00000220: 4ff1 bf3e 647e 4d3f b4b5 7abc 4a78 013f
00000230: 76be 34bf 77a6 033f d681 aa3d 75a5 b2bf
00000240: 79b9 733d 808c f23e 6241 10bd ba92 583e
00000250: 92fa 1e3f b152 c03c e413 93be 3944 bbbd
00000260: 1a65 fbbe 3f22 9c3e b8c9 213d 6caf 83bc
00000270: 08a3 0e3f 6dc8 e13e 25aa 243e c282 e73e
00000280: a2a3 913e 91ac d2bc 1168 2a3f e13a 4b3f
00000290: 61d9 2c3f 169c 683e a24b 40bd 8c9c 4cbe
000002a0: 4d1c 0c3f c236 f73d 6905 593d 9e78 a7bf
000002b0: 0713 11bf dace 373e dad0 05be 5764 7cbe
000002c0: 11c8 93be eb00 83bc 15d4 babe 619b 2c3e
000002d0: d6f5 91be f3ae 8cbe d82e be3e acbe 1f3d
000002e0: 8eb9 f13e 19cd 8cbe 7bf5 db3e be9a fdbe
000002f0: 1708 913f 30d3 c5bf 8951 94bf 80ba 933d
00000300: 1090 33bf d997 e6bf 7a6e ab3e efc0 943f
00000310: c6a8 c43e 995c 353f f487 33bf 5229 86be
00000320: db5a 563e 2b7d 0ebf e300 d5bd 563f 493d
00000330: 5592 98bc c1fd c63e 5973 573e f485 633f
00000340: 3086 213f 69b1 703e d9f4 a6be 9fda 853e
00000350: d00d f93d 556e 8dbf f3a9 87be e9c3 45bf
00000360: e1b5 7fbf 4baa 7abd 4ca2 97be d7cf 74bf
00000370: 6ec8 023f 0f99 6cbf 91a1 8dbe a47f 8c3f
00000380: 22cc 4fbe 8f0d 353f 585a f7bd 3918 f4bc
00000390: dd46 823d d056 a6be 9fcf 15bf 2f0b 3b3f
000003a0: e101 6ebe 8f91 a4be fcad 71bd ccc7 1b3f
000003b0: 5271 4d3f c2b7 4fbe 757d d93d 35dd d23e
000003c0: d643 6f3d 1d66 853f 8622 c53f 8bbd 9dbf
000003d0: 458f 4cbf 8f26 c13e 2cb5 fcbf 19c3 cabe
000003e0: 8f0a fd3d 2056 4fbf 76df f13e c3b6 f93e
000003f0: e68c a53c b377 173f 7dfa 333f e928 d6be

model.ds_path.1.0.bias f4 [32]
-0.9687607 -0.949318 -0.13207704 0.17303327 -0.03100109 0.1201216 -0.20248114 -0.13672788
0.007371918 -0.8601146 -0.12789105 0.0160412 -0.30479276 0.18453771 -0.065808326 -0.47092748
-0.0988653 -0.70714355 0.08708295 0.032762688 0.16347915 -0.48493204 0.2870635 0.42116114
0.09189953 0.15120403 0.22208932 -0.016191445 -0.7588906 0.083860435 -0.3377736 0.2955959
00000000: b400 78bf 8106 73bf 343f 07be a22f 313e
00000010: fff5 fdbc 5002 f63d 3757 4fbe 6502 0cbe
00000020: 2190 f13b 7830 5cbf dff5 02be d668 833c
00000030: cc0d 9cbe 74f7 3c3e 84c6 86bd 681d f1be
00000040: e479 cabd 5c07 35bf 8c58 b23d 2b32 063d
00000050: 1467 273e 0349 f8be fdf9 923e 6fa2 d73e
00000060: d235 bc3d 3bd5 1a3e 626b 633e eca3 84bc
00000070: a846 42bf 05bf ab3d a9f0 acbe 5958 973e

model.ds_path.2.0.weight f4 [32, 32, 3, 3]
0.6143851 0.124691546 0.7770268 -0.37618405 0.32143325 -0.1345252 -0.33859524 -0.4628456
0.4407905 -0.4831535 0.07199351 0.034554046 0.24744269 1.0818566 0.39967436 -1.0702528
-0.33724317 -0.47132373 0.06539449 -0.030525725 -0.24051122 0.44227517 -0.7888387 -0.49511483
-0.15144597 0.41301063 -0.44434565 0.2305539 -0.20437537 -0.37247705 0.095387444 0.02788183
-0.17423454 -0.02164276 -1.276144 0.25366512 0.27322435 0.34182787 0.12875916 0.16391103
0.19490059 0.3451185 0.113673896 -0.19452552 -0.11871183 -0.09071984 -0.48158872 -0.8828833
0.17039524 -0.58015364 0.085970394 -0.66587216 0.3792775 0.7198861 -0.41358918 -0.03232184
-0.46995172 -0.94179535 -0.3246855 -0.75942683 -0.3894786 0.32642856 -0.29751962 0.6872154
0.39188448 -0.43011856 -1.0057818 -0.06970178 0.37091488 -0.10235043 -0.009070151 0.65029174
0.42187032 0.48520786 0.38413426 0.12330075 -0.072985105 -0.77468944 0.46133244 0.33121085
-0.7138848 0.3478031 -0.25739545 0.22869468 -1.071811 -0.7214715 0.33534086 0.4151144
-0.22708637 0.19005093 -0.7194021 -2.101175 -0.93435633 -0.92644763 0.2625401 0.49419367
-0.40211397 0.50311893 0.2281772 -0.69616485 0.7031955 -0.4315089 -0.56831616 0.3945559
0.3098224 0.30375582 0.49375466 -0.11849058 0.041855007 -0.9940317 0.37827244 -0.2055602
-0.551941 0.22001778 0.10327293 0.30299956 -0.07758139 0.63638127 -0.16242518 0.35628533
-0.31730366 -1.3852619 0.33260748 0.1748162 0.36820447 1.0751721 0.39569002 0.21693805
0.020684676 0.31269315 -0.5390786 -0.043338086 0.4464987 0.037449937 -0.17617875 0.9113299
0.29508445 -0.17197163 0.04425222 -0.114942074 -0.4101588 -0.41090187 -0.477295 1.129019
0.6715395 -0.76385194 -0.33897248 -0.23501702 0.6838929 -0.29871854 1.255658 0.32343134
-1.8997443 -0.10024109 0.20521507 -0.015120608 -0.097078264 0.100412615 -0.38093928 -0.17503451
-0.26489806 -0.32904005 0.23795606 -0.17758808 0.14905334 -0.16662197 0.5812518 -0.17625135
-0.59201014 0.19117218 -0.602586 0.3515865 -0.7335628 -0.255544 0.25155854 -0.22158076
0.06707536 -0.052534103 -0.19101946 0.4117497 -0.49530378 0.15900022 2.3469458 -0.40175655
0.12537454 0.06284266 0.08473977 -0.69128025 0.38500938 0.6508917 -1.340342 0.6424385
0.6775172 -0.03227185 0.4319907 0.07604063 0.101276755 -0.47857445 -0.32425818 -0.60704404
-0.33836177 0.35296217 0.9178609 0.37964228 -0.24890177 -0.4085849 0.079913326 -0.25430626
-0.2013218 0.31045446 -0.40954205 -0.033163793 0.22289638 0.14470632 0.22324662 0.17829008
-0.10055439 -0.39760646 0.4799287 0.41161054 -0.8126719 0.23435573 0.08439285 0.6520919
0.46142146 -0.021990186 -0.19864215 -0.82497644 0.15864539 0.11772601 -0.32240805 0.55508274
0.5732524 -0.08707579 -0.07134555 -0.5127959 0.37223533 0.045176752 -0.056267615 0.3656338
-0.63548833 -0.16964896 0.45049423 0.21759285 0.26521957 0.6378602 -0.05263801 -0.413936
-0.033303406 0.25618795 0.037064716 0.1572459 0.31491944 0.09968656 0.6416455 -0.6124932
00000000: 5848 1d3f 485e ff3d 3aeb 463f 329b c0be
00000010: e692 a43e f9c0 09be 5b5c adbe 19fa ecbe
00000020: 4baf e13e e55f f7be 5571 933d 8b88 0d3d
00000030: 9e61 7d3e 477a 8a3f 1ea2 cc3e 0bfe 88bf
00000040: 23ab acbe 5851 f1be 8ced 853d 1611 fabc
00000050: 9348 76be e471 e23e 55f1 49bf b17f fdbe
00000060: a714 1bbe 2176 d33e 4681 e3be 5216 6c3e
00000070: c747 51be 50b5 bebe 7e5a c33d 7068 e43c
00000080: 8a6a 32be 284c b1bc b058 a3bf 65e0 813e
00000090: 10e4 8b3e 1004 af3e 71d9 033e 4bd8 273e
000000a0: 0594 473e 5fb3 b03e dccd e83d b331 47be
000000b0: 301f f3bd 53cb b9bd cc92 f6be a404 62bf
000000c0: 177c 2e3e f384 14bf 3f11 b03d 9976 2abf
000000d0: a930 c23e 754a 383f f6c1 d3be e863 04bd
000000e0: 839d f0be 8019 71bf 2e3d a6be cc69 42bf
000000f0: bd69 c7be a521 a73e 7e54 98be 59ed 2f3f
00000100: 15a5 c83e 8038 dcbe 75bd 80bf cfbf 8ebd
00000110: 8ee8 bd3e 1a9d d1bd f89a 14bc 8579 263f
00000120: 63ff d73e 2a6d f83e 3fad c43e 1b85 fc3d
00000130: 3779 95bd 0c52 46bf c433 ec3e 7894 a93e
00000140: 27c1 36bf 3f13 b23e 56c9 83be f02e 6a3e
00000150: 1a31 89bf 5bb2 38bf ccb1 ab3e e089 d43e
00000160: 5489 68be b69c 423e bc2a 38bf a779 06c0
00000170: fa31 6fbf ac2b 6dbf a86b 863e f406 fd3e
00000180: e2e1 cdbe 67cc 003f 49a7 693e dc37 32bf
00000190: 9f04 343f bcee dcbe 2b7d 11bf 3b03 ca3e
000001a0: 0ba1 9e3e e285 9b3e 69cd fc3e 30ab f2bd
000001b0: 2870 2b3d dd78 7ebf edac c13e 607e 52be
000001c0: 014c 0dbf 574c 613e c280 d33d c222 9b3e
000001d0: fee2 9ebd e2e9 223f c952 26be 086b b63e
000001e0: a075 a2be 4350 b1bf 874b aa3e 0503 333e
000001f0: 4c85 bc3e 3d9f 893f e297 ca3e 0225 5e3e
00000200: e972 a93c 5119 a03e 0e01 0abf 4783 31bd
00000210: 7a9b e43e 1b65 193d 3468 34be eb4c 693f
00000220: 4f15 973e 5519 30be d141 353d c066 ebbd
00000230: 5600 d2be bb61 d2be 0360 f4be b283 903f
00000240: 03ea 2b3f cd8b 43bf cd8d adbe 4da8 70be
00000250: 9b13 2f3f a3f1 98be 67b9 a03f cb98 a53e
00000260: d22a f3bf 334b cdbd e623 523e 6dbc 77bc
00000270: f8d0 c6bd 21a5 cd3d 790a c3be 3f3c 33be
00000280: b8a0 87be f077 a8be c1aa 733e a6d9 35be
00000290: 70a1 183e f39e 2abe ebcc 143f 3c7b 34be
000002a0: fa8d 17bf a4c2 433e 1343 1abf 2503 b43e
000002b0: c6ca 3bbf aad6 82be 48cc 803e 11e6 62be
000002c0: ce5e 893d 002e 57bd 9b9a 43be dbd0 d23e
000002d0: 7598 fdbe f4d0 223e 5c34 1640 09b3 cdbe
000002e0: 2f62 003e a7b3 803d 0b8c ad3d bef7 30bf
000002f0: f31f c53e d7a0 263f 5490 abbf d976 243f
00000300: c471 2d3f 7d2f 04bd e32d dd3e 31bb 9b3d
00000310: 306a cf3d b607 f5be 2b05 a6be 3d67 1bbf
00000320: c13d adbe 75b7 b43e eff8 6a3f 7960 c23e
00000330: 1be0 7ebe 0a32 d1be 99a9 a33d 6e34 82be
00000340: 4d27 4ebe e3f3 9e3e 7faf d1be c2d6 07bd
00000350: f33e 643e e52d 143e c39a 643e ad91 363e
00000360: 76ef cdbd 1393 cbbe 37b9 f53e 9ebe d23e
00000370: 440b 50bf f3fa 6f3e 29d6 ac3d 7fef 263f
00000380: 6f3f ec3e c324 b4bc d968 4bbe a831 53bf
00000390: f073 223e 561a f13d ab12 a5be e719 0e3f
000003a0: abc0 123f cb54 b2bd 9e1d 92bd 9846 03bf
000003b0: a195 be3e 420b 393d df78 66bd 5a34 bb3e
000003c0: 5daf 22bf 75b8 2dbe 2ea7 e63e a9d0 5e3e
000003d0: dcca 873e ce4a 233f f49a 57bd 6bef d3be
000003e0: 2769 08bd 112b 833e 2cd1 173d 1205 213e
000003f0: 1f3d a13e 7828 cc3d e142 243f 5bcc 1cbf

model.ds_path.2.0.bias f4 [32]
-1.0561639 -0.34691715 -0.60611886 -0.06777136 -0.8832528 -0.8203293 -0.6027283 -0.59566194
-0.33410832 -0.031047285 0.18346708 -0.29861143 -0.13250558 -0.27168435 -0.35377097 -0.67268115
0.14491445 -0.44973195 0.0019598485 -0.06226853 -0.38684368 -0.87928396 -0.010814669 -0.13991944
-0.7999413 -0.43586493 -0.106568374 -0.612225 -0.85487264 -0.6755112 -0.4733937 -0.24790113
00000000: 6130 87bf 209f b1be 9b2a 1bbf b6cb 8abd
00000010: db1c 62bf 1a01 52bf 674c 1abf 4d7d 18bf
00000020: 3f10 abbe e056 febc cbde 3b3e 99e3 98be
00000030: 8baf 07be 361a 8bbe 7821 b5be d534 2cbf
00000040: 7464 143e 4443 e6be cd70 003b 490d 7fbd
00000050: 6010 c6be c118 61bf 0230 31bc 0b47 0fbe
00000060: f4c8 4cbf b029 dfbe 8540 dabd c7ba 1cbf
00000070: efd8 5abf 4dee 2cbf a960 f2be cbd9 7dbe

model.ds_path.3.0.weight f4 [32, 32, 3, 3]
0.7261105 0.16651933 -0.08184928 0.091821454 0.17862938 -0.16216561 -0.49971846 -0.037312347
-0.29078105 -0.4485013 -0.15250841 0.060750466 0.07542776 0.25728542 -0.1390767 -0.42909622
0.6274665 -0.054011784 -0.44297302 -0.6388946 -0.0016601487 -0.18088399 -0.43121412 0.305451
-0.17794298 0.6284797 0.41240668 0.5781687 0.29702643 0.3172618 -0.11058798 0.08613004
-0.23716332 -0.19377217 -0.35500908 -0.30613923 0.30326068 -0.059008636 -0.06582543 -0.12973812
0.0633864 -0.21779403 -0.1695909 0.75540686 -0.148516 0.3621747 0.05107864 -0.12459889
-0.7285011 -0.36788157 -0.24539328 -0.32262275 -0.12759915 0.69906837 -0.13795453 0.29414415
0.64059454 0.0653846 0.8187829 -0.39112356 -0.17021382 -0.9771232 -0.02905287 0.50322556
0.09770697 0.57278824 -0.23259132 0.099463634 1.0953958 -0.06660297 0.27989477 0.29123968
0.043512467 0.011293405 -0.22971962 0.41814536 -0.37832534 -0.049109943 0.8957088 1.0090648
-0.1671084 0.38012442 1.2594546 -0.14379299 -0.20183367 -0.8740051 0.12507503 0.36846286
0.2744346 0.3788907 0.10901515 -0.34573996 -0.17126712 0.028315026 -0.7963743 -0.0025873384
-0.57799107 1.1529099 0.57979524 0.39109784 -0.08339019 0.17721598 0.016601918 -0.13786161
-0.26947886 0.22006354 0.27776507 -0.60245353 -0.08012468 0.10196115 -0.20360988 0.18712676
0.57384056 -0.24538793 0.34286937 -0.36525494 -0.39624518 -0.08677695 0.10405184 0.1809303
0.07286393 0.25157902 -0.009453687 0.037851386 -0.42963412 -0.11513287 -0.31958497 -0.03839871
0.17875051 -0.059481766 0.44507098 -0.2900186 0.12791924 -0.6087386 0.36877972 0.17458476
-0.024072398 0.11009125 0.3053346 -0.00761699 0.04303883 0.36430514 0.11371031 -0.31436312
-0.21868019 -0.6996203 -0.21031496 1.2272153 -0.41877443 0.4826236 0.24388081 0.7336674
-0.22349358 0.5263344 -0.007500618 0.16552398 -0.11207952 -1.8106972 -0.6400054 0.20612545
0.46896982 -0.38080373 -0.053736825 -0.040370762 0.049212996 0.11970293 -0.09664585 0.14353739
-0.26946497 0.31650156 0.009849723 0.15846826 -0.03314716 0.18878508 -0.06855292 0.23056488
0.10816569 -0.2536573 -0.48610184 -0.29281437 0.47864744 0.24648121 0.44769248 -0.5901901
-0.509232 -0.8390687 -0.25765482 0.3140881 0.4823082 -0.33852205 0.37197846 -0.50546366
0.1544883 -0.44006413 0.49917343 -0.37626556 -0.5105626 -0.06320451 0.09931043 -0.027857028
-0.2775451 -0.33121246 0.11714691 0.11422697 -0.1073352 0.07290819 0.09390873 0.0394726
0.37542278 0.24678186 0.046784535 -0.2135636 -0.051802166 -0.2073429 -0.008877687 -0.31337625
-0.38528472 0.16575761 -0.4154266 0.1008117 -0.5796217 0.08755306 -0.4548515 0.21608204
0.2134336 -0.70280325 0.22859928 -0.24477205 -0.1821442 0.41031528 0.42833593 0.43639743
0.7475686 0.51408136 0.048566263 -0.0933289 0.08068136 -0.19391084 0.8132848 0.29718718
-0.26599693 -0.668062 -0.26750097 0.052287202 0.21445437 0.013166647 -0.310701 -0.4560249
-0.17407165 0.66950244 0.5258259 -0.17541899 -0.62288094 -0.66504323 -0.44421774 0.24702291
00000000: 61e2 393f 0b84 2a3e 98a0 a7bd e30c bc3d
00000010: 9fea 363e be0e 26be 19db ffbe d5d4 18bd
00000020: 41e1 94be f6a1 e5be 2a2b 1cbe 7bd5 783d
00000030: df79 9a3d eaba 833e 1f6a 0ebe 80b2 dbbe
00000040: a5a1 203f 763b 5dbd 5ccd e2be 998e 23bf
00000050: 5999 d9ba a739 39be 19c8 dcbe 1364 9c3e
00000060: af36 36be 0ce4 203f f826 d33e dd02 143f
00000070: d913 983e 2370 a23e f37b e2bd f264 b03d
00000080: f1da 72be 366c 46be c0c3 b5be 48be 9cbe
00000090: fc44 9b3e 0ab3 71bd 7ccf 86bd 12da 04be
000000a0: bbd0 813d 6605 5fbe 3da9 2dbe 5862 413f
000000b0: 9414 18be f66e b93e d637 513d b42d ffbd
000000c0: 0c7f 3abf f95a bcbe 6048 7bbe cf2e a5be
000000d0: 5aa9 02be 25f6 323f f443 0dbe 109a 963e
000000e0: 01fe 233f 5ce8 853d c29b 513f 5941 c8be
000000f0: 884c 2ebe bf24 7abf 4900 eebc 64d3 003f
00000100: 981a c83d 40a2 123f 6b2c 6ebe 97b3 cb3d
00000110: ee35 8c3f 2367 88bd 5e4e 8f3e 5e1d 953e
00000120: 213a 323d f907 393c 9f3b 6bbe 2617 d63e
00000130: dcb3 c1be 8227 49bd 2c4d 653f 0929 813f
00000140: 771e 2bbe ab9f c23e cf35 a13f 783e 13be
00000150: 7cad 4ebe ccbe 5fbf ab13 003e 2aa7 bc3e
00000160: b182 8c3e f6fd c13e 5643 df3d d404 b1be
00000170: a660 2fbe eaf4 e73c 30df 4bbf 5690 29bb
00000180: 39f7 13bf 8d92 933f 766d 143f fa3d c83e
00000190: 7ac8 aabd 1b78 353e bf00 883c 982b 0dbe
000001a0: 22f9 89be 5658 613e 3937 8e3e 653a 1abf
000001b0: 6918 a4bd 02d1 d03d 1c7f 50be 289e 3f3e
000001c0: 37e7 123f f946 7bbe 938c af3e b202 bbbe
000001d0: a6e0 cabe 1db8 b1bd 2219 d53d cb45 393e
000001e0: af39 953d f7ce 803e a3e3 1abc 0e0a 1b3d
000001f0: 01f9 dbbe c8ca ebbd a4a0 a3be f747 1dbd
00000200: 600a 373e 27a3 73bd 58e0 e33e 517d 94be
00000210: 43fd 023e 4bd6 1bbf b2d0 bc3e 59c6 323e
00000220: 7a33 c5bc 8577 e13d d154 9c3e f197 f9bb
00000230: 7c49 303d 3486 ba3e f3e0 e83d 34f4 a0be
00000240: b3ed 5fbe 511a 33bf ce5c 57be 6415 9d3f
00000250: 9a69 d6be 711a f73e e4bb 793e a0d1 3b3f
00000260: 80db 64be dabd 063f bfc7 f5bb 1e7f 293e
00000270: f389 e5bd edc4 e7bf 65d7 23bf 8d12 533e
00000280: d01c f03e b5f8 c2be 251b 5cbd d05b 25bd
00000290: 9193 493d cf26 f53d 42ee c5bd 77fb 123e
000002a0: 50f7 89be 7e0c a23e bc60 213c 8145 223e
000002b0: 51c5 07bd e050 413e 7965 8cbd 3319 6c3e
000002c0: f985 dd3d 5fdf 81be 57e2 f8be c4eb 95be
000002d0: 4711 f53e 9265 7c3e f337 e53e b316 17bf
000002e0: 075d 02bf 35cd 56bf 55eb 83be 28d0 a03e
000002f0: 1af1 f63e c352 adbe f673 be3e 1166 01bf
00000300: 2e32 1e3e 1650 e1be a993 ff3e e1a5 c0be
00000310: 3bb4 02bf 5e71 81bd 4463 cb3d 6c34 e4bc
00000320: 641a 8ebe ae94 a9be b8ea ef3d d4ef e93d
00000330: 8fd2 dbbd e450 953d 3853 c03d 05ae 213d
00000340: 6a37 c03e 62b4 7c3e 24a1 3f3d 6bb0 5abe
00000350: 822e 54bd b251 54be b873 11bc da72 a0be
00000360: 0a44 c5be 5dbc 293e ccb2 d4be 5d76 ce3d
00000370: 1662 14bf 054f b33d 4ce2 e8be 9c44 5d3e
00000380: 568e 5a3e eaea 33bf ee15 6a3e 86a5 7abe
00000390: 0284 3abe d814 d23e d94e db3e 7c6f df3e
000003a0: a860 3f3f d69a 033f 6bed 463d 3923 bfbd
000003b0: 453c a53d 9090 46be 6f33 503f eb28 983e
000003c0: c030 88be 1c06 2bbf e3f5 88be 1b2b 563d
000003d0: ed99 5b3e ecb8 573c 3414 9fbe 187c e9be
000003e0: d73f 32be 8364 2b3f 879c 063f 09a1 33be
000003f0: 2075 1fbf 4640 2abf 8270 e3be 93f3 7c3e

model.ds_path.3.0.bias f4 [32]
-0.09486159 -0.08392038 -0.06231552 -0.021608893 -0.54747206 0.16223538 -0.1402898 0.085150786
0.06534092 0.07356243 0.06277784 -1.300459 -0.0073879887 -0.037640966 0.14299756 -0.09245838
-0.008045719 0.1409329 -1.3397087 -1.8277076 0.09091883 0.24646108 -0.07764998 -0.76803565
0.0056137256 -0.00040741122 -1.0168002 -0.10438549 0.24321856 0.00763382 -0.22121808 -0.27771613
00000000: cb46 c2bd 73de abbd 8f3e 7fbd 2205 b1bc
00000010: 2127 0cbf 0821 263e 21a8 0fbe 8963 ae3d
00000020: 76d1 853d e6a7 963d ab91 803d 7175 a6bf
00000030: f116 f2bb 6a2d 1abd f46d 123e d25a bdbd
00000040: 31d2 03bc b750 103e 937b abbf 53f2 e9bf
00000050: a733 ba3d 4b60 7c3e f406 9fbd fc9d 44bf
00000060: 58f3 b73b cf99 d5b9 8226 82bf 0fc8 d5bd
00000070: 490e 793e 2025 fa3b fe86 62be cf30 8ebe

model.ds_path.4.0.weight f4 [32, 32, 3, 3]
0.06611663 0.15579979 0.09644604 -0.08754292 0.088350765 0.13757598 -0.077831395 0.019059964
0.0832422 -0.18513083 0.022186773 -0.024719816 -0.09223244 0.021165717 0.037148986 -0.08916017
0.052297972 -0.092147216 -0.73946816 -0.08761543 -0.48663083 -0.39629886 -0.22936264 -0.5466474
-0.25574434 -0.112364896 -0.38866007 -0.13252436 -0.5516062 -0.3534719 -0.1232679 -0.13129826
-0.20770177 -0.065086775 -0.16583858 -0.09027217 -0.2883348 -0.07902935 -0.40359715 -0.15543418
-0.16422623 0.07995653 -0.056423165 0.101761244 0.19733767 -0.9224971 -0.7851458 -1.0491723
-0.83533454 -0.7574031 -0.7819517 -0.8281453 -0.6326571 -0.8938156 -0.22133917 -0.6165031
-0.057848766 -0.18117498 -0.41891828 -0.07652021 0.08022019 -0.14686586 0.10355295 -1.1229013
-0.65496755 -0.8549814 -0.64368016 -0.56226104 -0.54745793 -0.89588755 -0.5427649 -0.72716177
-0.27197862 -0.15547785 -0.14536533 -0.2918286 -0.31992987 -0.26122522 -0.23508467 -0.397705
-0.27902246 0.81839585 0.455492 0.9632447 0.44985956 0.18306436 0.40515858 0.3579023
0.15291728 0.33383626 0.40252507 0.42852727 0.3694184 0.34898445 0.27377623 0.4761839
0.227058 0.39469177 0.30590978 -0.062211204 0.084943734 0.11352573 0.1419746 0.11414518
0.08748971 0.2167832 0.2941911 0.00723219 -0.21731631 -0.31980136 -0.26821223 -0.13991825
-0.24896407 -0.2983435 0.07572092 -0.23719248 -0.17603412 0.14593765 0.17219776 0.14503618
0.077276826 0.16173589 0.05842909 0.10293923 0.11583507 0.11653133 -0.44657972 -0.015170718
-0.33188567 -0.172993 -0.2712598 -0.21337157 -0.41477427 -0.063416794 -0.19282071 0.058225956
-0.052047238 0.19104473 -0.0003780485 -0.1974954 0.029565247 -0.02392756 -0.2487056 -0.11183146
0.1639714 -0.06995114 0.07371792 0.08295552 0.16726133 0.041269396 0.23207623 0.19088113
0.052804008 -0.34196815 -0.7714302 -0.67414236 -0.18913378 -0.60742104 -0.33642048 -0.31836712
-0.6043811 -0.4459141 -0.60544133 -0.35983047 -0.41971016 -0.41727418 -0.4162619 -0.09535228
-0.6040446 -0.31664565 -0.10504735 -0.08493806 -0.11495421 -1.0821095 0.3274879 0.6130477
-0.14440733 -0.19629388 0.35681486 -0.09165113 -0.3975919 0.15739404 -0.4923602 -0.3912284
-0.6793109 -0.40971437 -1.2716055 -0.53569245 -0.4940688 -0.100779526 -0.9423626 -0.28905445
0.20437285 -0.46688297 0.14325604 0.22456224 -0.1948153 0.50224584 0.20625477 -0.005671077
0.035701998 0.03630961 -0.12969771 -0.21549024 0.15934835 -0.13924532 -0.17159384 0.2659346
0.51058215 0.05788296 0.6151271 0.7081762 0.29900393 0.8729061 0.7977308 0.42755282
-0.11971046 0.12793173 0.09909888 0.013563908 0.058596447 0.16833243 -0.27021065 0.068042554
0.036020607 -0.10674352 -0.1499049 0.36306742 -0.37633726 -0.039637886 0.100831576 0.09918412
0.07908709 0.295141 -0.0043205363 -0.27904713 0.07349893 -0.31079918 -0.22289078 -0.1792822
-0.12926355 -0.32812983 -0.015075374 0.45479771 0.29350284 0.26976004 0.20087312 0.441477
0.14160775 0.37953997 0.17009792 0.14126803 0.16382647 -0.13645779 0.31572595 0.0834365
00000000: 2868 873d fb89 1f3e 8085 c53d b449 b3bd
00000010: 3ff1 b43d b8e0 0c3e 1166 9fbd a423 9c3c
00000020: e37a aa3d f092 3dbe 09c1 b53c 3681 cabc
00000030: 5de4 bcbd ba63 ad3c 8929 183d 9b99 b6bd
00000040: 6636 563d aeb7 bcbd c94d 3dbf b86f b3bd
00000050: ad27 f9be afe7 cabe 0ade 6abe 16f1 0bbf
00000060: ecf0 82be 911f e6bd 74fe c6be 77b4 07be
00000070: 1036 0dbf 45fa b4be e173 fcbd 0d73 06be
00000080: c6af 54be 374c 85bd 97d1 29be 9ee0 b8bd
00000090: 9ea0 93be 24da a1bd 49a4 cebe 232a 1fbe
000000a0: ec2a 28be 40c0 a33d fa1b 67bd 3368 d03d
000000b0: e312 4a3e c528 6cbf 51ff 48bf 474b 86bf
000000c0: 7cd8 55bf 2be5 41bf fd2d 48bf 5501 54bf
000000d0: d1f5 21bf 19d1 64bf bca6 62be 26d3 1dbf
000000e0: d4f2 6cbd ef85 39be 757c d6be a1b6 9cbd
000000f0: 7c4a a43d 0164 16be 9213 d43d 3bbb 8fbf
00000100: f4ab 27bf 10e0 5abf 39c8 24bf 57f0 0fbf
00000110: 3426 0cbf e358 65bf a4f2 0abf 4627 3abf
00000120: c840 8bbe 9635 1fbe a6da 14be 8f6a 95be
00000130: d9cd a3be 50bf 85be 09ba 70be fd9f cbbe
00000140: 08dc 8ebe 6482 513f 3f36 e93e 3497 763f
00000150: fe53 e63e 3975 3b3e f270 cf3e f83e b73e
00000160: 5996 1c3e 96ec aa3e c417 ce3e ed67 db3e
00000170: 6924 bd3e 17ae b23e 662c 8c3e 60ce f33e
00000180: e481 683e 0a15 ca3e 35a0 9c3e 2dd1 7ebd
00000190: fbf6 ad3d 2e80 e83d ca61 113e f3c4 e93d
000001a0: ce2d b33d 6afc 5d3e 37a0 963e 02fc ec3b
000001b0: 2b88 5ebe 01bd a3be 1d53 89be bb46 0fbe
000001c0: 70f0 7ebe 7bc0 98be 9213 9b3d 96e2 72be
000001d0: 4a42 34be ae70 153e 9c54 303e 5d84 143e
000001e0: 5043 9e3d 189e 253e 5753 6f3d ced1 d23d
000001f0: f03a ed3d faa7 ee3d 19a6 e4be 9a8e 78bc
00000200: ebec a9be 1425 31be 91e2 8abe 147e 5abe
00000210: 4b5d d4be aae0 81bd cb72 45be 577e 6e3d
00000220: 7c2f 55bd 3ba1 433e d034 c6b9 3c3c 4abe
00000230: d132 f23c bb03 c4bc aeac 7ebe e407 e5bd
00000240: 1ee8 273e 8b42 8fbd 6cf9 963d 95e4 a93d
00000250: 8e46 2b3e 190a 293d 64a5 6d3e 5876 433e
00000260: 0449 583d 7316 afbe 737c 45bf 9894 2cbf
00000270: 49ac 41be f27f 1bbf 4e3f acbe 0401 a3be
00000280: b8b8 1abf da4e e4be 34fe 1abf b33b b8be
00000290: 40e4 d6be f6a4 d5be 4820 d5be 0e48 c3bd
000002a0: aba2 1abf 611f a2be 1123 d7bd 01f4 adbd
000002b0: 1d6d ebbd 9082 8abf 7eac a73e b2f0 1c3f
000002c0: 84df 13be 4301 49be 70b0 b63e 96b3 bbbd
000002d0: 2a91 cbbe e72b 213e a316 fcbe 174f c8be
000002e0: 52e7 2dbf 15c6 d1be f8c3 a2bf 2423 09bf
000002f0: 96f6 fcbe 7f65 cebd ad3e 71bf f2fe 93be
00000300: 1e47 513e 490b efbe b6b1 123e a5f3 653e
00000310: a97d 47be 2f93 003f 7334 533e 71d4 b9bb
00000320: 423c 123d 63b9 143d 7acf 04be 79a9 5cbe
00000330: 372c 233e 5396 0ebe 4cb6 2fbe 9428 883e
00000340: 83b5 023f af16 6d3d f878 1d3f 094b 353f
00000350: 0b17 993e c676 5f3f 1638 4c3f 34e8 da3e
00000360: c22a f5bd 8900 033e 5bf4 ca3d 273b 5e3c
00000370: d402 703d 565f 2c3e 0d59 8abe e559 8b3d
00000380: 588a 133d 599c dabd ac80 19be f9e3 b93e
00000390: 47af c0be 565b 22bd c980 ce3d 0b21 cb3d
000003a0: 6af8 a13d b91c 973e 4993 8dbb 44df 8ebe
000003b0: 9b86 963d 1221 9fbe 7b3d 64be c195 37be
000003c0: aa5d 04be a200 a8be b4fe 76bc 3fdb e83e
000003d0: 0146 963e fd1d 8a3e afb1 4d3e 4609 e23e
000003e0: 9f01 113e 1053 c23e 262e 2e3e 91a8 103e
000003f0: 20c2 273e 97bb 0bbe d5a6 a13e c1e0 aa3d

model.ds_path.4.0.bias f4 [32]
0.7203587 -0.046812784 0.6449673 0.35687023 -0.17952888 0.9046135 -0.41938564 0.02753147
-0.07743441 0.27041236 0.3684098 0.23676156 0.22698714 -0.06351339 0.15260714 -0.7770619
1.4692868 -1.0331774 0.255759 0.15772124 0.370257 -0.27743042 -0.17774138 0.45303798
-0.60510546 -1.0729162 0.35048562 0.041892942 1.3619226 0.9992573 0.5032748 0.31360114
00000000: 6e69 383f c3be 3fbd 941c 253f b2b7 b63e
00000010: 6bd6 37be c094 673f b7b9 d6be ad89 e13c
00000020: ef95 9ebd 7d73 8a3e 36a0 bc3e 9f71 723e
00000030: 516f 683e 4f13 82bd 0c45 1c3e 87ed 46bf
00000040: 9711 bc3f 283f 84bf d8f2 823e ad81 213e
00000050: 5392 bd3e 5c0b 8ebe d601 36be 98f4 e73e
00000060: 31e8 1abf 5155 89bf da72 b33e ef97 2b3d
00000070: 7b53 ae3f 54cf 7f3f 9ed6 003f 5490 a03e

model.us_path.0.0.weight f4 [32, 64, 3, 3]
0.49778533 -0.4900954 0.49054012 -0.103911154 -1.1184168 -0.15121034 0.9578439 -0.37933314
0.75645447 0.40412757 -0.4300591 0.34403974 -0.10370576 -0.79167914 -0.1362598 1.0951527
-0.7642084 0.9608145 -0.22455147 -0.19651565 -0.024346886 0.17378415 0.2681223 0.1872076
-0.24361981 -0.11869495 -0.35847294 0.115516484 -0.10070855 -0.040692344 -0.12475588 -0.635437
-0.13639072 0.85486066 -0.65451324 0.7338358 -0.5054151 0.44645387 -0.5699831 0.16512129
0.37972263 0.3699665 -0.20331387 0.038108 -0.651099 -0.3213908 -0.05253242 -0.32779512
0.13918681 0.13824536 0.003951278 0.10081401 -0.11029509 0.014783548 0.3259076 -0.1509426
0.3318913 -0.17337796 -0.5482107 -0.14100477 0.6519707 -0.3038788 0.43895376 0.1147172
-0.04338735 0.065137625 -0.051711373 -0.12761135 -0.11805066 0.051687527 0.024510894 0.12430469
0.21522944 -0.12564828 0.24112716 -0.085750446 -0.12199637 0.034089137 0.1264794 -0.05253684
-0.07340401 -0.068331204 -0.23153098 0.15633018 0.10181036 -0.3066609 0.0074553695 0.40080255
-0.36540478 0.2809462 -0.2431102 -0.051452808 -0.09482433 0.21036083 0.17182238 0.046834696
-0.16853942 0.03359836 -0.069274 -0.10967498 -0.06489205 -0.10672244 0.019330028 0.42244133
0.09754535 -0.7092599 0.48160186 -0.70133066 -0.10941724 -0.032439794 -0.057771448 0.0639749
0.18004741 -0.072719865 -0.31873176 0.0056133806 -0.017110622 0.041236643 -0.15694058 0.044939578
-0.008442745 0.15960188 -0.044067875 -0.020032287 -0.12833709 0.0038794952 0.15371932 0.12694614
0.04650293 -0.10888444 -0.10523945 0.14477001 0.041693345 0.08516194 -0.17306714 -0.15467839
0.023845373 -0.13312018 0.27113917 0.35477474 0.09692145 -0.7103233 0.32407725 -0.51593477
0.09021567 -0.105599016 0.50008345 0.018670795 -0.021904176 0.14613615 -0.40200907 -0.18978523
-0.28944567 -0.33337852 0.20506883 -0.45662677 0.18228932 0.40802327 0.11520677 -0.6123277
0.038001526 -0.28220654 0.15771432 -0.03801088 0.16808684 0.055322412 -0.5416589 -0.34416863
0.40845945 -0.46679577 0.88612396 -0.14074267 -0.013777543 -0.04144335 0.2924557 0.17440051
-0.07517038 -0.67399263 0.31540847 0.11328596 -0.021515692 0.1389438 0.21913289 -0.49997908
-0.4767715 0.04216391 1.0109378 -0.3286912 0.19001779 0.5883019 -0.53427136 0.7358722
-0.084855214 -0.68435955 -0.117354855 0.4111853 -0.2448795 0.5096879 -0.2806393 -0.004540034
-0.63555485 0.3445205 0.29374853 0.43684348 -0.74448895 0.33565935 -0.95750177 0.102670215
0.036479317 -0.07050787 0.20893724 0.121433236 -0.1022994 -0.10105627 -0.27631882 -0.68692076
0.29087564 -0.100877345 0.20791292 -0.19127506 -0.42002055 -0.25756073 0.3808469 -0.36099336
0.53855246 0.16128631 -0.17916432 0.34353068 -0.085686326 -0.5024845 -0.11619309 0.34257936
-0.22381738 0.5078073 0.2629269 -0.08649901 0.35166392 -0.25921243 -0.6873737 -0.05924238
0.7465201 -0.39016062 0.64865345 0.638369 -0.50864714 0.57610035 -0.09092437 -0.9438905
-0.0344683 0.7922777 -0.4649931 0.5275504 0.13369803 -0.02172414 -0.08082392 0.1834949
00000000: b8dd fe3e c9ed fabe 1328 fb3e 5fcf d4bd
00000010: 4828 8fbf e2d6 1abe 4235 753f f437 c2be
00000020: 00a7 413f cfe9 ce3e b530 dcbe fa25 b03e
00000030: af63 d4bd 7cab 4abf b087 0bbe f72d 8c3f
00000040: 29a3 43bf f0f7 753f d2f0 65be 663b 49be
00000050: 1f73 c7bc 79f4 313e 5347 893e 59b3 3f3e
00000060: 7977 79be 5716 f3bd c489 b7be e893 ec3d
00000070: 4940 cebd 04ad 26bd 0380 ffbd 00ac 22bf
00000080: 02aa 0bbe 26d8 5a3f 2e8e 27bf aadc 3b3f
00000090: e262 01bf 9a95 e43e 6aea 11bf 8e15 293e
000000a0: 016b c23e 406c bd3e 8331 50be 2217 1c3d
000000b0: 6dae 26bf 568d a4be 3c2c 57bd c3d4 a7be
000000c0: fd86 0e3e 3190 0d3e b979 813b 9377 ce3d
000000d0: 64e2 e1bd b236 723c 5cdd a63e b290 1abe
000000e0: a8ed a93e fe89 31be 8957 0cbf 8e63 10be
000000f0: 8de7 263f 0196 9bbe 8cbe e03e daf0 ea3d
00000100: efb6 31bd e066 853d 4ecf 53bd 8dac 02be
00000110: 8bc4 f1bd 4db6 533d 12cb c83c 7593 fe3d
00000120: 1b65 5c3e f1a9 00be 0aea 763e ee9d afbd
00000130: 3cd9 f9bd 0da1 0b3d d183 013e df30 57bd
00000140: d754 96bd 3bf1 8bbd 7516 6dbe 0515 203e
00000150: f381 d03d a802 9dbe 2c4c f43b fe35 cd3e
00000160: 5616 bbbe 2ed8 8f3e e1f1 78be 2ec0 52bd
00000170: 4233 c2bd d468 573e 35f2 2f3e bdd5 3f3d
00000180: 9995 2cbe 6f9e 093d 87df 8dbd 479d e0bd
00000190: 20e6 84bd 4b91 dabd 025a 9e3c 3b4a d83e
000001a0: dbc5 c73d 0f92 35bf 8594 f63e 688a 33bf
000001b0: 2516 e0bd 97df 04bd c1a1 6cbd 4605 833d
000001c0: 595e 383e 27ee 94bd cf30 a3be 73f0 b73b
000001d0: 932b 8cbc c1e7 283d 08b5 20be 9012 383d
000001e0: 7053 0abc ad6e 233e 8480 34bd c01a a4bc
000001f0: cc6a 03be 213f 7e3b 9968 1d3e 2bfe 013e
00000200: db79 3e3d cefe debd c887 d7bd 973e 143e
00000210: a4c6 2a3d 6269 ae3d 8338 31be 0364 1ebe
00000220: 5f57 c33c a850 08be c1d2 8a3e 09a5 b53e
00000230: c17e c63d bfd7 35bf 74ed a53e 4d14 04bf
00000240: fec2 b83d 4c44 d8bd 7805 003f 7ff3 983c
00000250: 6370 b3bc b7a4 153e 22d4 cdbe 0f57 42be
00000260: 3932 94be 97b0 aabe 90fd 513e fcca e9be
00000270: 0daa 3a3e 6de8 d03e 87f1 eb3d 82c1 1cbf
00000280: 7da7 1b3d 607d 90be dd7f 213e 4cb1 1bbd
00000290: f51e 2c3e c199 623d 28aa 0abf df36 b0be
000002a0: 9921 d13e dbff eebe 05d9 623f d91e 10be
000002b0: 34bb 61bc 81c0 29bd c1bc 953e 0c96 323e
000002c0: eef2 99bd c88a 2cbf 387d a13e 7802 e83d
000002d0: ad41 b0bc 4947 0e3e 5f64 603e 42fd ffbe
000002e0: 651b f4be 10b4 2c3d 6966 813f 374a a8be
000002f0: 0694 423e f49a 163f 02c6 08bf 1f62 3c3f
00000300: 92c8 adbd 3032 2fbf be57 f0bd e186 d23e
00000310: b1c1 7abe e87a 023f f4af 8fbe 91c4 94bb
00000320: b9b3 22bf fe64 b03e 3566 963e f3a9 df3e
00000330: d496 3ebf 8bdb ab3e d61e 75bf c344 d23d
00000340: 566b 153d 6e66 90bd a5f3 553e fdb1 f83d
00000350: 5982 d1bd 97f6 cebd a979 8dbe 0ada 2fbf
00000360: a7ed 943e c898 cebd 20e7 543e 9cdd 43be
00000370: ef0c d7be 00df 83be 5dfe c23e 1fd4 b8be
00000380: 93de 093f 3d28 253e da76 37be 41e3 af3e
00000390: 507c afbd d3a2 00bf a5f6 edbd 9066 af3e
000003a0: 6230 65be a9ff 013f 5b9e 863e 6526 b1bd
000003b0: 4b0d b43e 7eb7 84be b9f7 2fbf 23a8 72bd
000003c0: f11b 3f3f 22c3 c7be 270e 263f 276c 233f
000003d0: b336 02bf 507b 133f 8e36 babd cfa2 71bf
000003e0: a22e 0dbd b6d2 4a3f 9313 eebe 8b0d 073f
000003f0: 23e8 083e d3f6 b1bc 0387 a5bd 16e6 3b3e

model.us_path.0.0.bias f4 [32]
0.5805851 -0.7106124 0.7193819 1.4051051 -0.13382694 -0.15405934 -1.5759115 -0.46702072
-0.49706778 0.74829525 0.56114703 0.102142856 0.4726371 -0.3588194 0.33044067 0.9381539
-2.057793 0.34228903 1.1074926 -0.48581767 0.61000854 -0.4725567 0.24292295 0.8630755
1.0420434 0.099592134 0.40558484 1.0306582 0.71206456 0.42485347 0.6560127 0.16003715
00000000: 3aa1 143f b2ea 35bf 6a29 383f 7cda b33f
00000010: ee09 09be bbc1 1dbe 78b7 c9bf 571d efbe
00000020: ab7f febe 4790 3f3f 55a7 0f3f 4630 d13d
00000030: 7dfd f13e 2db7 b7be 852f a93e db2a 703f
00000040: e1b2 03c0 8240 af3e 51c2 8d3f 18bd f8be
00000050: 8529 1c3f f4f2 f1be cbc0 783e 84f2 5c3f
00000060: ae61 853f f6f6 cb3d d1a8 cf3e 9cec 833f
00000070: dd49 363f 6586 d93e 73f0 273f c7e0 233e

model.us_path.1.0.weight f4 [32, 64, 3, 3]
0.3957905 -0.1757335 0.5297336 -0.33365715 -0.86591476 -0.24906248 0.8150934 -0.16395539
0.5841704 0.12465029 -0.0708767 0.13828509 0.076129004 -0.20809254 0.040569 0.05637287
-0.024517784 0.027136413 -0.05451895 0.18639176 -0.1175411 -0.11220403 0.061099995 -0.066584945
-0.009863937 0.13130058 -0.02880004 -0.015537998 0.14404029 -0.19909859 -0.01943897 0.21873999
-0.058371004 -0.36877143 0.23532943 -0.17760101 -1.1492535 0.43560687 -1.3258897 0.47127685
1.3183304 0.580703 -0.87098783 0.23617348 -0.52671784 -0.10530294 -0.027554048 -0.16486727
0.09989478 0.27616248 0.15705317 -0.13512395 0.04714032 -0.20841691 0.19056149 -0.100182705
0.23793063 0.02271526 -0.32243833 -0.082083985 0.20461395 -0.2193359 0.29192138 0.307546
-0.17201485 0.34538093 -0.072574496 -0.32850635 -0.09545586 0.14966318 -0.015512255 0.14279698
0.5200593 0.17592356 0.44152817 -0.30374235 -0.6285417 -0.31786522 -0.6890133 -0.85404384
-0.46362102 0.08781182 -0.12614925 0.110441014 0.123897016 0.034105994 -0.016813917 -0.23341818
0.06769174 -0.028857822 -0.15489265 0.08640451 -0.3148392 0.04832659 0.2040207 0.13234332
-0.17518277 0.021295512 -0.10511762 -0.030651832 -0.07041102 -0.08373111 0.07575935 0.08522716
0.06762568 -0.29145017 0.23495585 -0.20294076 0.28476673 -0.26225746 0.35178 -0.040846575
-0.33145428 -0.06636976 0.14678833 -0.0663465 0.21542118 0.2706834 -0.07952583 0.32906184
-0.08249726 -0.526151 -0.11332053 0.44219983 -0.27162826 0.42593554 0.21349175 0.17978217
0.1340754 -0.36684263 -0.45122293 -0.19864611 0.49502116 -0.12838489 0.41672143 0.046742883
0.0055304295 0.0377026 0.084220834 -0.16424428 0.121671066 0.22712944 -0.08132819 0.1566072
0.20516717 0.060386345 0.20797373 -0.1359989 -0.21062602 -0.00029818085 -0.120563015 -0.26167673
-0.062822 0.12951843 -0.18051206 0.24902287 -0.010493335 -0.36360234 -0.049618073 0.3708443
-0.219564 0.32205296 0.28380173 -0.38492677 0.38171613 0.025111612 -0.5482457 0.015439181
0.4206509 -0.25916836 0.30239028 -0.06996883 0.032695655 -0.028254567 0.012875438 0.057866376
0.06834308 0.045077816 -0.0678044 -0.035096638 0.100580454 -0.07538238 0.044552125 -0.0024809947
-0.066918895 0.05902516 0.03203127 -0.01665464 -0.01563421 0.5147602 -0.32975212 0.54099286
-0.093666695 -0.5487329 -0.13302083 0.2875784 -0.11228583 0.24505448 -0.6083782 0.32539755
-0.63149095 0.22469854 0.7690317 0.2301807 -0.52654994 0.18676655 -0.52977604 -0.03211436
-0.00909377 0.12465501 0.12555096 0.13445698 0.06708319 -0.076706134 0.0050235856 -0.14894041
0.023393774 -0.061280455 0.0035033317 0.00092794874 0.0025810467 0.060076557 0.04583398 -0.08729179
0.020401279 -0.32114533 0.16980271 -0.2641207 0.039336976 0.2090319 0.097220495 -0.059138827
-0.009722286 -0.065963574 0.28516185 -0.19410273 0.25655618 -0.06452296 -0.34229594 -0.018600978
0.23382153 -0.08869696 0.18554573 0.15770605 -0.086893395 0.18619306 -0.037157033 -0.20769446
-0.050374757 0.1118523 0.013685153 0.10162907 0.076238535 -0.04149488 -0.016193287 -0.0016974633
00000000: 0da5 ca3e 7cf3 33be 9f9c 073f 1cd5 aabe
00000010: 97ac 5dbf 3c0a 7fbe f6a9 503f ece3 27be
00000020: 318c 153f a748 ff3d ce27 91bd 9b9a 0d3e
00000030: 86e9 9b3d 3616 55be ae2b 263d 3de7 663d
00000040: 85d9 c8bc 2f4d de3c 434f 5fbd 7bdd 3e3e
00000050: 63b9 f0bd 3acb e5bd fd43 7a3d b05d 88bd
00000060: 5a9c 21bc a973 063e 10ee ebbc 1693 7ebc
00000070: 4c7f 133e 80e0 4bbe 7a3e 9fbc 60fd 5f3e
00000080: 6f16 6fbd 9ccf bcbe 33fa 703e 0add 35be
00000090: bd1a 93bf dd07 df3e c1b6 a9bf 334b f13e
000000a0: 0dbf a83f f4a8 143f 0ff9 5ebf 76d7 713e
000000b0: fbd6 06bf 11a9 d7bd 07b9 e1bc f7d2 28be
000000c0: a295 cc3d 2b65 8d3e 8cd2 203e ef5d 0abe
000000d0: 3516 413d 3e6b 55be 8d22 433e 972c cdbd
000000e0: 16a4 733e 5a15 ba3c a316 a5be a61b a8bd
000000f0: 5286 513e 9799 60be b876 953e ab76 9d3e
00000100: a924 30be c5d5 b03e f0a1 94bd fc31 a8be
00000110: 5d7e c3bd 4e41 193e 1d27 7ebc 5f39 123e
00000120: 9b22 053f 4e25 343e fb0f e23e 1e84 9bbe
00000130: 1ce8 20bf 3bbf a2be 2d63 30bf 9ea2 5abf
00000140: bc5f edbe afd6 b33d 452d 01be e62e e23d
00000150: b8bd fd3d bab2 0b3d 57bd 89bc 2d05 6fbe
00000160: f8a1 8a3d 3d67 ecbc 2e9c 1ebe d9f4 b03d
00000170: 9b32 a1be 1af2 453d cdea 503e 0285 073e
00000180: 1d63 33be ed73 ae3c e847 d7bd 8d19 fbbc
00000190: a733 90bd 377b abbd b827 9b3d 948b ae3d
000001a0: 557f 8a3d f538 95be 4498 703e b4cf 4fbe
000001b0: f2cc 913e 9c46 86be 821c b43e bd4e 27bd
000001c0: 60b4 a9be deec 87bd ae4f 163e ace0 87bd
000001d0: 5f97 5c3e 0497 8a3e 70de a2bd cb7a a83e
000001e0: 53f4 a8bd d5b1 06bf 9814 e8bd 0468 e23e
000001f0: dc12 8bbe 3914 da3e 959d 5a3e d118 383e
00000200: 104b 093e ccd2 bbbe b106 e7be e369 4bbe
00000210: 6a73 fd3e 5477 03be 835c d53e 7775 3f3d
00000220: 9b38 b53b 0b6e 1a3d f97b ac3d a72f 28be
00000230: ae2e f93d 9f94 683e 658f a6bd a35d 203e
00000240: 5817 523e ac57 773d 11f7 543e 4c43 0bbe
00000250: 59ae 57be 2855 9cb9 bee9 f6bd 7efa 85be
00000260: d2a8 80bd 7ba0 043e 27d8 38be daff 7e3e
00000270: 3dec 2bbc 162a babe 523c 4bbd 4edf bd3e
00000280: 63d5 60be 20e4 a43e 764e 913e 1f15 c5be
00000290: 4c70 c33e deb6 cd3c d559 0cbf 9ef4 7c3c
000002a0: 8e5f d73e b7b1 84be e6d2 9a3e d14b 8fbd
000002b0: e1eb 053d 1f76 e7bc 80f3 523c 4b05 6d3d
000002c0: 75f7 8b3d 84a3 383d 09dd 8abd 7ec1 0fbd
000002d0: 20fd cd3d 1462 9abd 4a7c 363d 2f98 22bb
000002e0: c60c 89bd 5ec4 713d 3933 033d 506f 88bc
000002f0: 5113 80bc 53c7 033f 45d5 a8be 827e 0a3f
00000300: 53d4 bfbd c279 0cbf 9d36 08be 7a3d 933e
00000310: 1df6 e5bd 90ef 7a3e acbe 1bbf 829a a63e
00000320: 64a9 21bf 6017 663e 43df 443f 7db4 6b3e
00000330: facb 06bf bb3f 3f3e 679f 07bf 598a 03bd
00000340: 09fe 14bc 204b ff3d 6e90 003e 17af 093e
00000350: e962 893d 1b18 9dbd e49c a43b d683 18be
00000360: 4da4 bf3c 3701 7bbd 2798 653b 9641 733a
00000370: c726 293b d612 763d 69bc 3b3d 0ac6 b2bd
00000380: 9520 a73c 296d a4be c3e0 2d3e d43a 87be
00000390: cf1f 213d 750c 563e 8a1b c73d 8e3b 72bd
000003a0: 394a 1fbc e917 87bd bc00 923e dec2 46be
000003b0: 555b 833e 9d24 84bd 6a41 afbe 1461 98bc
000003c0: e96e 6f3e c0a6 b5bd b3ff 3d3e b27d 213e
000003d0: 2af5 b1bd 65a9 3e3e f931 18bd dbad 54be
000003e0: c355 4ebd d212 e53d b137 603c e722 d03d
000003f0: f322 9c3d 89f6 29bd c9a7 84bc 6b7d deba

model.us_path.1.0.bias f4 [32]
0.11322645 0.096761666 0.9169219 -0.5121027 0.6727034 0.35207132 1.3590474 0.34199983
1.1078175 0.24151362 0.72899693 -0.65579635 1.2376974 1.3706629 0.24374908 0.64471966
0.74015224 1.1386054 0.44194198 -0.87548566 0.9426244 0.46935025 0.66817725 1.271651
0.42038712 0.63565224 0.076953016 0.054642547 -0.3740865 0.34427986 0.647603 -0.28296465
00000000: 45e3 e73d fb2a c63d 65bb 6a3f 2a19 03bf
00000010: 4a36 2c3f b142 b43e 44f5 ad3f 9a1a af3e
00000020: f7cc 8d3f 594f 773e 8b9f 3a3f 45e2 27bf
00000030: de6c 9e3f e271 af3f 5c99 793e 590c 253f
00000040: 9e7a 3d3f d2bd 913f 3846 e23e d41f 60bf
00000050: d54f 713f ad4e f03e aa0d 2b3f 76c5 a23f
00000060: fb3c d73e 1bba 223f 8b99 9d3d ddd0 5f3d
00000070: 4488 bfbe 7345 b03e 4fc9 253f bee0 90be
