src/loss/perceptual_segm.pt (torch, 459609 bytes, 20 tensors)

model.ds_path.0.0.weight f4 [32, 3, 3, 3]
000000 c6 ef 85 3d 39 66 c0 3e d2 18 a2 3e 83 40 d6 bd
       0.06539874 0.3757799 0.3165956 -0.104615234
000010 ae 68 04 3e 5b ca ec 3d d3 bc a3 3c f7 0d 19 3d
       0.12930557 0.11562034 0.0199875 0.037366834
000020 05 83 25 bd bf 34 6a be 77 05 da 3e 58 12 6b 3e
       -0.040408153 -0.22871684 0.42582294 0.22956216
000030 5b 54 8b bf 71 c9 10 3d d8 60 2a 3e 4b a3 9e be
       -1.0885118 0.03534836 0.16638505 -0.30983958
000040 35 6f 0b be e1 5e 91 3c 33 0c aa bf 9a 43 1a be
       -0.13616641 0.017745437 -1.3284973 -0.1506485
000050 e4 fd 9d be 31 d2 3c c0 5a ab 11 bf 59 58 be bd
       -0.30857766 -2.950329 -0.56902087 -0.09294195
000060 0c 61 0d 3f 0b e8 36 3f bc 5b b8 bd 36 2a d5 bb
       0.55226207 0.7144782 -0.09001872 -0.006505276
000070 80 b8 ae 3e c9 7d 01 3e 13 2d 48 3e 54 1b 10 3f
       0.34125137 0.1264564 0.19548444 0.562917
000080 85 32 f0 3e c4 36 0f bf 04 2a a8 be 6a 27 bb 3e
       0.46913543 -0.5594294 -0.32844555 0.36553508
000090 fc 29 84 bf ca 01 29 bf ca 0c 09 bf 16 79 20 3e
       -1.0325313 -0.66018355 -0.5353514 0.1567119
0000a0 94 1e 4a 3e fe 55 66 be 45 2b cc bf a5 6b cb bf
       0.19738227 -0.22493741 -1.5950705 -1.5892226
0000b0 1f 08 2b bf 01 18 fc 3e 93 c3 76 3e d6 4b 7d 3d
       -0.66809267 0.49237064 0.24098043 0.0618399
0000c0 70 b1 83 3f 6d cf 81 3f 15 f7 a2 3e 24 c4 75 3d
       1.0288525 1.0141426 0.31829134 0.060001507
0000d0 6a df 8c 3d ef 25 75 3d 86 fd 4f 3e a9 fa a9 3d
       0.0687855 0.05985063 0.20311555 0.08299763
0000e0 c4 cd 6e bc fa be cd 3e 6d 0c aa 3e ce 06 01 3e
       -0.014575426 0.40184766 0.33212605 0.12600252
0000f0 db 90 9a 3e 08 1e bb 3d f4 66 f1 3e bb b4 10 be
       0.3018864 0.091365874 0.4714886 -0.14131443
000100 ce 16 81 bf ee 98 40 bf 5b 29 2c bd 04 dd 93 bf
       -1.0085084 -0.7523335 -0.042031627 -1.1551824
000110 c9 f1 2d bf e7 80 d8 3e 36 6b 49 bf f5 f6 7c 3e
       -0.6794706 0.42285845 -0.78679216 0.24703582
000120 3b 37 02 3d 46 da 0f bf 0d 94 12 be 5d 00 37 bf
       0.031790953 -0.56192434 -0.1431429 -0.7148493
000130 38 48 c2 bf e9 c5 20 bf ca 63 da be 07 2c 68 bf
       -1.517829 -0.62801987 -0.42654258 -0.9069218
000140 a1 43 00 3e fd ea ea 3e 5c fb 9c 3e f3 ce 1b 3f
       0.12525798 0.45882407 0.30660522 0.60862654
000150 1e 36 96 be 0d 0b 32 3e 5f 6e 2d bd 45 3f c0 bd
       -0.29338163 0.17387028 -0.042341586 -0.09387068
000160 08 f8 cc bd bf bf eb be 97 f8 13 bf d3 fa 7a bf
       -0.10008246 -0.46044728 -0.57801193 -0.9803898
000170 d5 2d ef be 74 73 48 bf 29 09 01 bf b6 54 0c bf
       -0.46714655 -0.7830117 -0.504046 -0.5481676
000180 0e 41 9d be 23 db 19 bf c1 38 3f bf eb 28 83 3e
       -0.30713695 -0.601 -0.74695975 0.25617155
000190 b5 fa f5 3d 5f c5 2b 3e 82 c6 22 3f c8 44 61 3f
       0.12010709 0.1677451 0.6358415 0.87995577
0001a0 bb 3e 30 3f 73 9b 40 3f 04 e2 24 3f 1b 76 8d 3e
       0.6884572 0.75237197 0.6440737 0.2762917
0001b0 46 a7 b4 bd e1 04 53 3e 87 a3 0d 3f cf f1 ef be
       -0.088209674 0.2060733 0.5532765 -0.46864173
0001c0 c3 52 ac be e6 09 a7 3d d2 b7 95 be fa b7 3f 3d
       -0.33656892 0.08156185 -0.29241806 0.046806313
0001d0 f8 8a 94 3e 7b 8a ff bb 4e ab e6 3e b3 33 7b 3f
       0.29012275 -0.0077984906 0.4505257 0.9812576
0001e0 96 3c 2b bf 03 2f cb be da d6 ad 3e 37 ab 20 bf
       -0.6688932 -0.39684305 0.3395298 -0.62761253
0001f0 47 53 c6 be 12 0e a2 3e b1 c1 8a 3b 4d 1a 0c 3f
       -0.3873541 0.3165136 0.0042345156 0.5472763
000200 0e 4a 81 3f 4f 0f 2e bf 48 aa c7 be f8 69 97 3e
       1.0100725 -0.6799211 -0.38997102 0.29573035
000210 d6 fc 41 bf 9c 1f ac be f1 82 90 3e 79 fd cd be
       -0.7577642 -0.33617866 0.282249 -0.40232447
000220 36 66 e6 be a0 48 81 be 2d 34 5c be 92 77 08 be
       -0.44999856 -0.2525072 -0.21504278 -0.13326862
000230 1d d5 01 be 2b f0 f2 3e 5b ca 2b 3f b5 99 e8 3e
       -0.12678953 0.4744886 0.67105645 0.4542977
000240 3e f0 dd be f7 13 47 bf d9 28 c8 be b7 48 3d be
       -0.43347353 -0.7776484 -0.39093664 -0.1848477
000250 f0 1c a5 be fa 1e 3f 3d d4 29 36 3f db 3b 35 3f
       -0.3224864 0.0466604 0.71157575 0.7079446
000260 62 02 14 3f ae 1c da be f2 68 39 bf 5c 3c 07 be
       0.57816136 -0.42600006 -0.7242576 -0.13206619
000270 36 4d 46 be 5d d8 42 be fe 46 8b bd 28 cd 25 3f
       -0.19365391 -0.19027849 -0.0680065 0.6476617
000280 08 2b 37 3f ea a6 c9 3e 5e fa e5 3a ca a3 80 bf
       0.71550035 0.39385158 0.0017545929 -1.0049984
000290 38 2d 4a bf ba 80 56 3e 15 57 a5 bf 75 9f 50 bf
       -0.7897525 0.20947543 -1.29172 -0.8149331
0002a0 9f e0 d0 be a6 04 cc be c2 5d 2c bf de 16 15 3f
       -0.40796372 -0.39847296 -0.67330563 0.5823802
0002b0 3a 74 f0 bd c3 40 92 3e a9 f5 23 3f 98 81 85 be
       -0.117409185 0.28565034 0.6404672 -0.26075435
0002c0 38 09 b1 3d a3 60 13 3f 2d 0f fc 3e ab 53 61 3e
       0.086443365 0.5756933 0.49230328 0.22004573
0002d0 79 01 53 bd b6 cc d4 3e 02 9d 10 3f 0c d5 f1 3d
       -0.051515076 0.41562432 0.56489575 0.118082136
0002e0 c0 ed 87 be ea b8 61 bc 73 42 45 be 0a 62 ce 3e
       -0.26548576 -0.013776997 -0.1926363 0.40309173
0002f0 05 90 f1 3e a2 cb d1 bd 00 74 02 bf c1 9d c2 bf
       0.4718019 -0.10243918 -0.5095825 -1.5204393
000300 2c 4c a2 3e 2f 05 5b 3e 82 37 69 be be 9e 67 3f
       0.3169874 0.21388696 -0.22775081 0.90476596
000310 8a ea 15 3f 5b 03 28 3e 16 49 65 3f f6 a8 9d 3e
       0.58561003 0.1640753 0.89564645 0.3079297
000320 d4 2b 2b bb 64 2a 93 3e 2a 35 d4 bd 27 4f 52 bd
       -0.0026118653 0.2874328 -0.10361703 -0.051345017
000330 11 37 56 3e ce f1 bf be fd 67 90 bf 4f 14 51 3f
       0.20919444 -0.3748917 -1.1281735 0.81671613
000340 2e 82 e9 3e b3 6e 4d 3f 50 8c e1 3e 0f 85 73 3c
       0.45607132 0.8024704 0.44052362 0.014863267
000350 ae f5 90 be e7 37 38 be 51 20 48 bf 57 f0 b9 bf
       -0.2831244 -0.17990075 -0.7817431 -1.4526471
000360 f6 1c 00 bf ef 10 eb 3e d4 a2 d9 bd 57 aa 52 bf
       -0.5004419 0.45911357 -0.1062676 -0.8229117
000370 a6 90 a0 3e eb c1 3e bf 7a b2 37 bd 06 45 1e 3f
       0.31360358 -0.74514645 -0.044847943 0.6182407
000380 22 2f 8e 3e 98 d5 3d 3e 5e 3e 23 3f b2 6a 00 bf
       0.27770334 0.18538511 0.6376704 -0.50162804
000390 42 15 07 3e dd 6f 48 3f d2 04 06 bf f2 ff a6 3d
       0.13191703 0.7829569 -0.52351105 0.081542864
0003a0 9a 11 ba 3e 07 94 aa bd 9a 52 8c bf cf 03 70 3f
       0.36341554 -0.08329015 -1.0962708 0.9375581
0003b0 94 63 64 be 22 9f aa bf dd 40 c8 3f 57 e8 18 3c
       -0.22303611 -1.3329813 1.5644795 0.009332738
0003c0 19 b2 a6 bf 0a c9 b8 3e 04 7d 1b be 39 9c 2a be
       -1.3023101 0.3609088 -0.15184408 -0.16661157
0003d0 51 68 99 bd 9e bc d3 3e 38 a9 1b bb 05 47 4b 3f
       -0.074906 0.4135484 -0.0023751985 0.7940524
0003e0 5a 8a 43 3f cb 94 9d be d1 2e 1b 3e eb ee f4 3e
       0.7638298 -0.30777583 0.15154578 0.4783853
0003f0 ed bb 6b be ff a9 1b be 3f 61 de 3d eb 3d 7e be
       -0.23020907 -0.15201567 0.10858392 -0.24828307

model.ds_path.0.0.bias f4 [32]
000000 82 74 2f 3e 40 22 94 3c 4c b0 8b be fa 03 dd bd
       0.17134288 0.018082738 -0.2728294 -0.10791774
000010 4b 20 a7 3a 1c 53 6d 3a fe 82 8c 3c 0b 72 49 bc
       0.0012750713 0.0009053217 0.017152306 -0.012295256
000020 fb 50 86 bb 64 b1 b4 bf 73 d1 8b bc 9f 57 e2 3d
       -0.004099009 -1.4116635 -0.017067647 0.11051869
000030 1b 48 ed bb 9d 1c 2f 3d 0c e0 7e 3d bc af e4 3c
       -0.0072412617 0.042751897 0.062225387 0.027915828
000040 99 1f 57 bf 87 47 c5 3d ff 95 dd be 9e 9e 94 3d
       -0.8403259 0.096327834 -0.432785 0.07256816
000050 60 82 21 3b b0 dc 3e 3e ca 5d 5f 3c d6 b1 55 3b
       0.002464436 0.18638873 0.013633201 0.003260722
000060 d5 c7 22 3e 39 e7 c7 ba 81 62 26 bb 1c 25 3e 3e
       0.15896542 -0.0015251405 -0.0025388303 0.18568844
000070 b0 1c 5c ba e5 ee fe 3c 12 84 2f bf 82 89 91 3c
       -0.0008396609 0.031119773 -0.685609 0.017765764

model.ds_path.1.0.weight f4 [32, 32, 3, 3]
000000 c6 58 ef 3e 38 06 47 3e bd 13 00 3f d0 9a 9f be
       0.46747416 0.19435966 0.5003012 -0.311728
000010 18 ba 1a 3f c8 09 6b 3f 1e 94 6a bf 2d e3 fb bd
       0.60440207 0.918118 -0.9163226 -0.1229919
000020 8f 89 31 bf 07 8f 81 bd 7f 45 7c be f5 8c f3 3c
       -0.6935052 -0.063261084 -0.24635886 0.0297303
000030 2d d2 4d 3f b3 c1 b3 3e aa 10 98 3e 08 3d 1b be
       0.8039883 0.35108718 0.29700214 -0.1516
000040 61 87 a2 3e 82 e6 66 3e 08 76 53 be c0 ca f2 bd
       0.3174391 0.22548869 -0.20650494 -0.11855078
000050 88 21 1e 3d ed ef a3 bd 6e 29 60 3e ea aa 4e 3e
       0.038606197 -0.080047466 0.21890804 0.20182386
000060 48 1a 1d 3e ec d5 6f 3d 98 6a bd 3d ed 0e 46 bf
       0.15342057 0.05855362 0.09248847 -0.77366525
000070 4d 06 52 bf cc 58 29 be d1 f2 21 bf aa 94 30 bf
       -0.82040864 -0.1653778 -0.63261133 -0.68976843
000080 80 8f 11 bf 5a 7f b9 bf 7c 1e cd bf 63 0f b8 bf
       -0.5685959 -1.449199 -1.6024928 -1.4379696
000090 f9 ec 10 bf 21 e9 12 be 55 49 a0 3b 9a e2 95 be
       -0.5661159 -0.14346744 0.0048915544 -0.29274446
0000a0 f2 1e fc 3e 82 c1 26 bb cc 83 37 3e 62 c6 67 be
       0.4924236 -0.002544493 0.1792137 -0.22634271
0000b0 a6 be af be 0b a1 13 3e 98 08 67 be d1 59 c6 bc
       -0.3432514 0.14416902 -0.22561872 -0.02421275
0000c0 4e ee 18 be 5b 19 b4 be 7f 0b c9 3e 6e ec 06 3e
       -0.14934656 -0.35175595 0.39266583 0.13176128
0000d0 37 68 42 3f 39 86 b1 be b4 5a e1 bf 64 f0 ea bf
       0.7594027 -0.34672716 -1.7605805 -1.8354611
0000e0 37 6a c7 bf 1a 08 94 bf bf 9b d0 bf e1 40 a9 bf
       -1.5579289 -1.1564972 -1.629753 -1.3222924
0000f0 f2 d2 61 bf 46 0d bf bf bc dc 81 bf 02 61 90 3e
       -0.882125 -1.4925926 -1.0145488 0.2819901
000100 0d 02 35 3e f3 55 82 bf a6 1f 10 3f 69 57 1c 3f
       0.17676564 -1.018248 0.5629829 0.6107088
000110 31 52 c9 be 18 dd 26 3d d6 c8 bf bd 8e 65 59 bf
       -0.3932052 0.040738195 -0.09364478 -0.84920585
000120 f7 ea 1c bf d1 d8 d9 3f cf 5f 79 bf 38 26 a1 bf
       -0.6129603 1.7019292 -0.9741182 -1.2589788
000130 69 b5 21 40 44 01 0d 3e 27 5e 1d bf e8 41 48 bf
       2.5266974 0.13770014 -0.6147179 -0.78225565
000140 42 14 6f be 3f dc 84 be 6b 9d 70 be ce c4 fd 3d
       -0.23347571 -0.25949284 -0.2349755 0.12391053
000150 ae cf c2 bd a4 bb 8f 3b 50 a1 af be eb 0e a7 3e
       -0.09512268 0.004386382 -0.3430276 0.3262857
000160 4f a4 ec 3e 72 d0 e2 3e d4 b1 d5 3e 0c 14 dd 3d
       0.46219108 0.44299656 0.41737235 0.10794839
000170 a8 ac e7 be 12 93 f1 be 27 b9 d5 bd f1 6f b9 be
       -0.45248914 -0.47182518 -0.10435706 -0.36218217
000180 41 78 5f 3d 9a 2e 18 3f e2 83 12 3f ee ac 8c be
       0.054558042 0.5944611 0.5723249 -0.27475685
000190 d4 67 ff be 1f fe e4 be 30 78 ab be fe c8 0c bf
       -0.49883902 -0.4472513 -0.33490133 -0.5499419
0001a0 e1 0f 20 bf 37 5e c5 bd 68 4d f7 be fa 2e f4 be
       -0.6252423 -0.09637111 -0.48301244 -0.4769209
0001b0 df 0d 23 bd 5b d0 96 3d ad 8d 91 be 62 f8 6f be
       -0.03980815 0.073639594 -0.28428403 -0.23434594
0001c0 48 5c 0a 3e 27 8e 4a bd 61 21 ec be b0 df 61 be
       0.13511765 -0.049451973 -0.46119216 -0.22057986
0001d0 e3 d2 ca 3d fd 77 33 bf a9 27 b0 be 81 0a 47 3d
       0.09903505 -0.7010496 -0.34405258 0.048594
0001e0 9f 60 23 be 03 48 06 bf 8e ce a6 3e 0f d8 9b be
       -0.15954827 -0.5245363 0.32579464 -0.30438277
0001f0 ec 5c 2d 3f 5e 53 0e 3e fe ac b1 be 0b 4a ad bd
       0.6771991 0.1389899 -0.34702295 -0.08461388
000200 79 d1 0e 3e 0d 76 8a be a5 9b 41 bd d5 a3 1f 3d
       0.13947095 -0.2704319 -0.047267575 0.0389746
000210 cc a6 00 be 8d 14 03 3e 44 67 ce 3d 27 23 23 3e
       -0.12563628 0.12800808 0.1007829 0.15931378
000220 fd 81 d2 bd a8 8b 55 3c d0 d4 38 be e4 a1 d9 3e
       -0.102786995 0.013033785 -0.18049932 0.42506325
000230 35 91 98 3f 6b fb 73 bf 83 f4 04 bf 28 d7 9d be
       1.1919314 -0.9530551 -0.51935595 -0.30828214
000240 8c 39 5d bd df f2 36 3e 46 90 b9 bd 9c b1 ba be
       -0.05400996 0.17866085 -0.09060721 -0.3646363
000250 e8 4a b1 3e 2a 56 d1 3e 4d df 34 bf 9c 20 57 3b
       0.3462746 0.4088605 -0.7065323 0.0032825833
000260 2a af 9d 3c 62 55 05 3e 20 a6 27 3e e8 5c 2f 3f
       0.019248564 0.13020852 0.16371965 0.6850114
000270 84 7e bb be b8 10 99 be 7c 0b 65 3e 7f 01 a1 bb
       -0.3661996 -0.29895568 0.22367662 -0.0049135084
000280 55 cf a4 be 06 15 13 3f 99 d1 8d 3e a7 32 be bd
       -0.32189432 0.57453954 0.27698973 -0.09287005
000290 3e 32 51 be d2 0c 30 3e 04 8c 56 3e 14 ef 8e bf
       -0.20429322 0.1719239 0.20951849 -1.1166711
0002a0 ef 54 03 be 12 14 d8 3e 6b b1 55 3e 15 fc 13 c0
       -0.12825368 0.42202812 0.20868461 -2.3122609
0002b0 0e 0f e1 bf 0a 82 f6 bf 52 8b fe bf a8 15 88 bf
       -1.7582719 -1.9258435 -1.9886267 -1.0631609
0002c0 87 dd c6 bf 84 c6 9e bf f2 86 1a be 16 6a 90 be
       -1.5536355 -1.2404332 -0.1509054 -0.28205937
0002d0 91 02 58 3f 0f fd b2 3e 5e 5a 65 be b0 88 00 3f
       0.84378916 0.34958693 -0.22397754 0.5020857
0002e0 08 de d2 be 3f 1f 00 bf b7 cb 12 3e 58 fe 5a 3d
       -0.4118502 -0.5004768 0.14335524 0.053465217
0002f0 25 c5 a3 3d 17 e7 a5 3f 14 ee d1 3e 08 fc e4 be
       0.07996587 1.2961148 0.41001952 -0.44723535
000300 a5 a6 8b be f5 d5 a2 3e cb a3 08 bf bd 30 8f bd
       -0.27275577 0.3180386 -0.5337493 -0.06991718
000310 f0 1c ec 3e ad 4a e1 be 5e fe 81 3e 0b f8 9d 3e
       0.46115828 -0.44002286 0.2538938 0.30853304
000320 56 4c 2a 3d 2a a3 5f be 5d 61 1b 3d 9b a6 fc bc
       0.041576706 -0.21839586 0.03793465 -0.030841162
000330 47 83 a5 be 73 41 ef bd aa 18 2a bb b9 e6 97 bf
       -0.3232672 -0.11682405 -0.0025954642 -1.1867286
000340 1f a0 9d bf 2c 97 55 3f 98 e9 3e bf c8 4a b8 bf
       -1.231449 0.83433795 -0.74575186 -1.4397821
000350 10 7a b6 3f 83 fb 71 be da f4 8c 3e cf 11 65 3f
       1.4256 -0.236311 0.27530557 0.894803
000360 9e a1 5d bf 89 7d cb bd 56 dd 48 3f de 05 23 3f
       -0.86574733 -0.09936053 0.7846273 0.6368083
000370 d8 7a 75 be 5e 12 5c bf b0 f9 91 3e 00 36 5b bf
       -0.23972642 -0.85965526 0.2851081 -0.8562927
000380 85 2f 61 bf ee 9d e4 3e 62 fa 72 bf 25 33 2d be
       -0.87963134 0.4465174 -0.94913304 -0.16914041
000390 a4 67 98 bf 56 f3 ae bf 6d 6d 00 bf 85 43 b8 bf
       -1.1906629 -1.366801 -0.5016697 -1.4395605
0003a0 da 4c b8 be 45 27 38 3e 30 e9 93 3e 7c 53 cb 3e
       -0.35996133 0.1798373 0.28888845 0.3971213
0003b0 56 01 b8 be 1e 1f f1 be a6 6f b8 bf 60 fd 78 3e
       -0.3593852 -0.47094053 -1.4409072 0.24315405
0003c0 a9 a9 23 3f 51 0d 2c 3f 73 f2 8d 3e e7 29 32 3f
       0.63930756 0.6720782 0.27724037 0.6959519
0003d0 a8 08 c1 3e 62 f3 74 bd b4 74 bf be 3f f9 58 be
       0.37701917 -0.05980242 -0.37393725 -0.2118883
0003e0 d5 05 e1 be ef f2 24 bf f2 bf 27 be d2 0c 0b be
       -0.43949762 -0.6443319 -0.16381815 -0.1357911
0003f0 f2 57 f4 bf 30 50 ca bf 77 bb 88 bf eb 1a 2f c0
       -1.9089339 -1.5805721 -1.068221 -2.736018

model.ds_path.1.0.bias f4 [32]
000000 8f 67 89 3e 8e bc 36 bf 0c 59 4d 3e 27 ea 2b bf
       0.2683682 -0.7138146 0.200535 -0.67154163
000010 00 df 62 be a5 e6 53 3e 8b cb d1 bd 45 15 9a bd
       -0.2215538 0.20693453 -0.10243901 -0.07523588
000020 f7 5d 95 3e fe d3 bd 3d a8 78 80 3e 59 f3 91 3e
       0.29173252 0.0926895 0.25092053 0.28505972
000030 ba 18 96 3e 3b 67 18 3f d2 6c 0a bc 5b 31 82 3e
       0.2931574 0.5953252 -0.008448796 0.2542828
000040 e5 4f 4a be 52 f1 e0 be bc 54 95 3d e5 a3 a1 bc
       -0.1975704 -0.43934113 0.072915524 -0.019731471
000050 84 0d 5c 3e af b1 26 3d 5a 45 18 be e5 23 bb bd
       0.21489531 0.040696796 -0.14870206 -0.09137706
000060 a0 b4 9f 3e 72 d7 d9 3e 7a 10 c1 3e b3 a5 bb be
       0.31192493 0.42547184 0.37707883 -0.36649856
000070 67 fb c7 3e 81 0f 97 3d ee c0 83 bd 7c 23 a5 3e
       0.39058992 0.07376004 -0.06433283 0.32253635

model.ds_path.2.0.weight f4 [32, 32, 3, 3]
000000 e3 30 ec 3d e8 27 26 3d ab 7e dc be 82 ab ab bb
       0.11532762 0.0405654 -0.4306539 -0.005238951
000010 67 7f 1b 3e 88 54 4f 3d f6 52 fe 3d c0 69 b4 3d
       0.15185319 0.050617725 0.12418167 0.08809233
000020 0e 38 7b ba ca ce 2d 3f b1 9b d9 3e 28 1b 1b 3d
       -0.0009583243 0.6789366 0.42501596 0.037867695
000030 e9 98 a3 be a5 04 0a be 1c 8d 44 3d 3c 3b a5 be
       -0.319526 -0.13478334 0.047986135 -0.32271755
000040 4f da 26 bf 98 04 18 be 99 99 1e bf 5a fb a8 bd
       -0.6517686 -0.14845502 -0.6195312 -0.082510665
000050 e1 a3 2d 3e ca 43 1f be 83 e0 b5 be dc 8b bb bd
       0.16957046 -0.15553203 -0.3552285 -0.091575354
000060 8a 12 36 3e eb 24 03 3f b0 9b 76 3e 7e d6 8a be
       0.1778051 0.5122821 0.24082828 -0.2711677
000070 70 63 63 bd ae 70 41 bf d4 60 0b bd 61 84 81 bf
       -0.055514753 -0.7556256 -0.03402789 -1.0118524
000080 17 62 2f bd 64 a3 78 bd e8 ae 87 bf 47 13 14 3d
       -0.042818155 -0.060702696 -1.0600252 0.036151197
000090 4d cc d1 bd f4 a6 5b be dd 19 d7 bc fe 62 58 bf
       -0.102440454 -0.21450406 -0.02625745 -0.8452605
0000a0 24 58 1c be e3 7e 09 3e ca 46 14 3f 14 c1 a0 bf
       -0.15267998 0.1342731 0.57920516 -1.2558923
0000b0 a6 44 df 3e 34 80 b4 3c 4b 84 ff be 48 05 10 be
       0.43607062 0.022033788 -0.4990562 -0.14064515
0000c0 45 05 9f 3e ac 51 93 bc a2 2b 2d 3f 27 2d da be
       0.31058708 -0.01798328 0.67644703 -0.42612574
0000d0 8c 07 57 bf e0 ba 03 3e ae 7d b0 3e 2d c3 db 3e
       -0.8399589 0.12864256 0.34470886 0.42922345
0000e0 27 6f 3b bd 48 90 d8 be ef 69 51 3d fc 1a 91 bf
       -0.0457603 -0.42297578 0.051126417 -1.133636
0000f0 6a e4 7d be 19 41 8d bc be 85 9e 3e 6c 4e a8 3e
       -0.24794164 -0.017242955 0.30961412 0.3287233
000100 fa 1a ea bc 48 fc 4e 3c 62 6c f9 3d 0b a6 05 bf
       -0.028577317 0.012633391 0.121788755 -0.52206486
000110 8c 7e 3c 3e 36 37 b8 be 52 55 88 3e 41 45 87 bd
       0.18407649 -0.35979623 0.26627594 -0.06605006
000120 3f 15 2e 3e 6d 73 4c 3e ab 58 15 3e db 25 36 bf
       0.17000292 0.19965906 0.14584605 -0.7115151
000130 d2 9c 11 bf 95 00 3e 3e 2d 90 29 3c 2d c3 4a 3e
       -0.56879914 0.1855491 0.010349316 0.19801016
000140 fa 23 c3 3e 3d 54 bc 3d cb d0 a4 be 15 48 19 3f
       0.38113385 0.09195755 -0.32190546 0.59875613
000150 87 ef 06 3e 97 1c 5f be 46 ba d1 be 35 c1 bd 3e
       0.1317731 -0.2178825 -0.40962428 0.37061468
000160 05 b8 92 be 14 6d 17 3e 1a db 0a 3e 5f a5 2d 3f
       -0.2865602 0.14787704 0.13560143 0.6783046
000170 96 c7 b4 3e 12 64 55 bd 31 19 ac bf 11 e6 28 bf
       0.35308522 -0.052097388 -1.3445188 -0.65976053
000180 39 2c 40 bd 6d 9f 41 3f 6c 71 a6 3e 51 6a c7 be
       -0.046917174 0.7563389 0.3250841 -0.389483
000190 89 39 14 be a4 f0 9a be b8 ae d4 be d6 94 6b be
       -0.14475073 -0.3026172 -0.4153955 -0.23005995
0001a0 aa 41 b1 be 37 5b b5 3e fe 74 51 3f 30 ac a1 3d
       -0.3462041 0.35421154 0.8181914 0.0789417
0001b0 eb 82 d0 3d b9 35 4b 3f 83 85 4f 3e e5 25 8f 3e
       0.101812206 0.7937885 0.20265774 0.279586
0001c0 2b c7 61 3e ad fb 59 3e 8d 7c a1 be 3a fe 3f bf
       0.22048633 0.21287413 -0.31540337 -0.74997294
0001d0 c1 68 91 bc 67 b5 b9 3d 2c 4a c0 be 4c 39 08 be
       -0.017750146 0.09067803 -0.3755659 -0.13303107
0001e0 62 02 36 3f 4f 74 a9 3f 62 46 44 3f 8a 12 2e bf
       0.71097386 1.323862 0.76669896 -0.6799704
0001f0 99 fb a6 bf a6 63 8b be 1e 6b ef 3d fa 75 6a be
       -1.3045532 -0.27224463 0.11690353 -0.22896567
000200 37 80 0b be 28 97 7d bf 6f ca c2 be 6d d7 bc be
       -0.13623129 -0.9905877 -0.3804507 -0.36883107
000210 18 47 40 3f fd a5 19 3f 1f 41 1e 3f 2c 48 96 3e
       0.7510848 0.60018903 0.61818117 0.29351938
000220 19 5e 81 be f4 43 d2 3e e2 b7 ff be 60 b6 a4 3e
       -0.25267103 0.4106747 -0.4994498 0.3217039
000230 44 f4 89 3e 85 6b 16 be f7 30 24 bf 09 f8 17 3e
       0.26944172 -0.14689453 -0.64137214 0.14840712
000240 81 3d d9 3c fc a4 bb 3f 80 f3 09 3f 9e e8 91 bd
       0.026518585 1.4659724 0.53887177 -0.07124446
000250 93 66 6b bf 13 a6 34 c0 c2 1c 64 3f 1a 1b bc be
       -0.9195339 -2.8226364 0.8910638 -0.36739427
000260 30 8b 4a 3d 31 10 d5 3d cf 9e 09 bf f0 15 d5 3e
       0.049449146 0.10403479 -0.5375795 0.416183
000270 db b3 9f be 4a 4a d3 3e ca 7a f8 be c7 15 d7 be
       -0.31191906 0.41267616 -0.4853118 -0.42008802
000280 15 68 01 3d 6d 5a 7f 3e 61 52 18 3e d5 3a e4 be
       0.0315934 0.24936838 0.14875175 -0.44576135
000290 93 16 c6 be 19 89 2c be a0 cc 72 3f 8c c6 02 3f
       -0.38689098 -0.16849174 0.9484348 0.5108421
0002a0 0e 5c 4a be 6c 54 87 bf 88 84 00 3e f4 83 0b bf
       -0.19761679 -1.0572639 0.12550557 -0.5449822
0002b0 49 f7 b7 bd 2d 0e 3d bd 7b 6c 4b bd 27 b5 8a 3d
       -0.08982713 -0.046156097 -0.049664002 0.06772833
0002c0 75 12 b0 be ad ce 22 3f c3 e0 e0 3e d8 a5 46 bc
       -0.34389082 0.6359661 0.4392148 -0.012124501
0002d0 94 8a b6 3d da e9 1a be 1f 97 a4 3e 54 90 f6 3e
       0.089131504 -0.1512827 0.32146546 0.4815699
0002e0 a3 15 8d 3d ab 18 08 bf ae 28 bc be 13 86 ae bd
       0.068888925 -0.5316264 -0.36749786 -0.085216664
0002f0 58 ae f8 3e cb 77 bd 3e ed 84 c6 be 8a 41 d7 3e
       0.48570514 0.37005457 -0.3877329 0.4204219
000300 45 45 8f 3e 91 51 27 3f e8 4b 36 be c6 ba d7 be
       0.27982536 0.65358835 -0.17802393 -0.42134684
000310 f8 ad 0e 3f 8b 4f 09 bf 9a d2 e1 3e a5 ac e4 bc
       0.55734205 -0.53637 0.4410599 -0.027914355
000320 f1 05 06 bf 3e e5 e5 bd 77 89 70 3e 0d 88 cf bd
       -0.52352816 -0.11225365 0.23489939 -0.101333715
000330 35 93 3e be 0e 96 2c bf 9d 7c 86 3e c1 46 12 be
       -0.18610843 -0.67416465 0.26266947 -0.14284803
000340 25 32 0a bf 62 8b 8b be b4 65 40 be 99 88 c7 bd
       -0.53982764 -0.27254778 -0.18788797 -0.09742851
000350 fc 38 25 3d d4 88 81 3e 54 aa b4 3e 22 a3 b4 3e
       0.040337548 0.25299704 0.352862 0.3528071
000360 7d d8 8b 3e e0 fd 21 3f 23 bd 65 3e 76 09 6a be
       0.27313605 0.6327801 0.22435431 -0.22855172
000370 b5 df d1 bf 8e 41 6e bf d0 f1 9e be 5e fc a2 3f
       -1.6396395 -0.9306878 -0.31043863 1.2733266
000380 9d d2 d8 3e df b5 cc be 38 69 d9 3e 92 99 58 3f
       0.42348185 -0.39982507 0.42463088 0.8460933
000390 0b 59 dd 3e c8 54 af be 31 89 b7 be c7 49 16 3e
       0.43231997 -0.3424437 -0.35846856 0.14676581
0003a0 f3 7b fe be ef d2 02 bf 9d 15 e5 3e eb 76 20 be
       -0.4970394 -0.5110311 0.44743052 -0.15670364
0003b0 3e a3 1b be 2c c2 05 be d8 73 31 3f 3d ab 71 3f
       -0.1519899 -0.13062352 0.6931739 0.94401914
0003c0 27 91 2e 3f 62 5d 9d bf 84 7f 80 bf fe 7a 76 3e
       0.68190235 -1.2294123 -1.0038915 0.24070355
0003d0 ad 50 31 3f f6 23 f2 3c b1 af d4 3e 1f 3c 33 3f
       0.69263726 0.029558163 0.41540292 0.7001361
0003e0 e5 6e 39 be e9 2f 18 be 61 3f 98 bf 57 27 53 bf
       -0.18108709 -0.14862026 -1.1894342 -0.824819
0003f0 4c 64 35 3e d5 11 b8 bc a4 31 91 3e 90 58 c7 3d
       0.17714041 -0.02246944 0.28358185 0.09733689

model.ds_path.2.0.bias f4 [32]
000000 5a 4a b1 be 39 f3 94 be c2 85 e0 bd 38 1c 0c bf
       -0.34627038 -0.29091814 -0.10963012 -0.5473056
000010 c6 e4 fc 3e 2b e7 90 be 77 43 bc be 10 42 46 be
       0.4939329 -0.28301367 -0.36770222 -0.19361138
000020 e2 60 93 be b1 60 ac be 24 92 2f bf 6f dc 27 bf
       -0.28784853 -0.3366752 -0.6858237 -0.6557073
000030 cc 04 93 3e 04 19 cb be af 66 57 3e be 91 85 be
       0.28714597 -0.39667523 0.21035264 -0.26087755
000040 6f 40 31 bd d0 7f 86 3c 4e 3b 21 be 23 6c 65 be
       -0.04327434 0.016418368 -0.15745279 -0.22404532
000050 9a 40 3e be d7 ff d2 be 8a 95 8a bf 66 af 94 be
       -0.18579331 -0.41210815 -1.0826886 -0.29040068
000060 7d 81 96 3e cf 5f 8d be 8d 6e 56 be 83 dc d6 bd
       0.29395667 -0.2761216 -0.2094061 -0.10491278
000070 95 3e bf be 0c 6c d2 bf ce 01 07 bd 32 ba 1c bf
       -0.37352434 -1.6439223 -0.032960705 -0.6122161

model.ds_path.3.0.weight f4 [32, 32, 3, 3]
000000 9b 2a 5f 3d 93 2f 31 3f 93 7a 1a 3f bf d9 10 be
       0.05448399 0.6921322 0.60343283 -0.14145564
000010 b4 de e2 be dc 28 15 3f d7 5e 85 bc ac 86 8d be
       -0.44310534 0.5826547 -0.016280575 -0.2764181
000020 65 f9 e1 3d 91 98 96 3e b2 47 3c bf b7 50 a1 3f
       0.11033896 0.29413274 -0.735469 1.2602757
000030 31 2f ae 3c 01 3e 5d bf f0 8b 54 3c 92 c2 fb 3e
       0.021262737 -0.86422735 0.012972817 0.49171883
000040 f7 32 59 bf 31 28 e6 3e 1f e1 75 3e 31 5c b6 3e
       -0.8484339 0.4495254 0.24011658 0.3561721
000050 82 e1 71 3e f7 01 6c be 18 3a 26 3f 5a ad 0e 3f
       0.2362118 -0.23047625 0.64932394 0.55733263
000060 a7 1d 94 3e 3d d2 40 3c be 79 8e 3a fb 52 47 3c
       0.28928873 0.011768875 0.0010870022 0.01216578
000070 ac 14 62 be f6 71 99 be ae 76 22 ba ea be f2 bd
       -0.22078198 -0.29969758 -0.0006197494 -0.1185282
000080 7f 62 01 3d 2f 26 dc be 90 b5 c5 be 7b 6e fa bd
       0.031588074 -0.42997882 -0.38615084 -0.12228104
000090 ad bf 4c 3f a6 a1 0b 3f a0 a3 21 3e 45 11 53 be
       0.79979974 0.5454353 0.15785074 -0.20612057
0000a0 a8 f8 33 be 9c f8 a7 3e 21 a5 13 bf 29 6e a6 be
       -0.17575324 0.3280686 -0.5767384 -0.3250592
0000b0 c9 81 e0 be 55 5e 6f be 91 15 1a bf 2e 5d 01 3f
       -0.43849018 -0.23375829 -0.6018916 0.50532806
0000c0 23 43 36 3e 78 00 36 3f 4d 4a 39 bf b7 60 b4 be
       0.17799048 0.71094465 -0.72379 -0.35230038
0000d0 cc 27 0c bf 57 0d 14 3f 5a 80 31 3e 3f 75 bc be
       -0.54748225 0.57832855 0.17334118 -0.36808202
0000e0 76 68 d6 be 1b 3f b8 bd f6 f2 43 3e 32 d5 76 bf
       -0.41876572 -0.089964114 0.19135651 -0.9641906
0000f0 d6 12 aa 3e 10 f2 29 3e f6 1c 7c be 31 b6 f4 3e
       0.33217496 0.16596246 -0.24620423 0.4779525
000100 e4 72 f4 3d 27 66 c1 3e a0 9f 40 bd 19 0f e6 bd
       0.11935976 0.3777325 -0.04702723 -0.112333484
000110 a0 52 98 be 34 40 11 bf d6 00 1f be b9 68 bf bd
       -0.29750538 -0.5673859 -0.15527663 -0.09346146
000120 3d 21 1d 3e 76 44 65 be 66 ad 6a bf 42 2d 3d 3e
       0.1534471 -0.22389397 -0.91670835 0.18474296
000130 b7 db 04 bd da ed 8b bf 45 f1 6e 3d 38 ab 89 bd
       -0.0324361 -1.0931962 0.05833556 -0.067221105
000140 5a 02 16 bf 8b 7c 0a 3e 92 22 40 3f 68 95 a5 3e
       -0.5859734 0.13524072 0.7505275 0.3234055
000150 8e ec 44 be 1b 00 c1 be d3 4d 2a 3e 79 32 bb 3d
       -0.19230863 -0.37695393 0.1663125 0.09140486
000160 db 5f 9e be 84 c2 cb 3b 4d 1e 7f bf 47 b9 57 bf
       -0.30932507 0.0062182564 -0.9965561 -0.84267086
000170 40 e2 83 bf ae 5c 9b 3d fe 5f 60 3e 13 45 5e bd
       -1.0303421 0.075860366 0.21911618 -0.054265093
000180 b7 6a 8b 3e eb ec 01 3e 50 db 61 3e ac 6a fa 3d
       0.27229854 0.12688033 0.22056317 0.12227377
000190 33 d0 7b bf 6b 3b 82 bf ed 94 46 bf 63 c2 8e bf
       -0.9836456 -1.0174383 -0.7757099 -1.1153072
0001a0 b1 4e a8 be 83 13 34 3e ec 12 3d bf de 43 44 be
       -0.32872537 0.17585568 -0.73857 -0.19166514
0001b0 d5 30 a0 3e e9 54 7c 3e 9e 40 9d be 15 69 cb bd
       0.31287256 0.24641766 -0.30713362 -0.09932152
0001c0 f5 05 9b 3e af 94 5f be 11 62 d8 bd f8 6c 66 bd
       0.30277982 -0.21834062 -0.1056558 -0.056256264
0001d0 a6 46 3b be 62 64 6a 3f 5b 03 83 3f 04 26 95 3f
       -0.18288669 0.9155942 1.0235399 1.1652226
0001e0 69 a1 4f be 75 cb a0 be f3 92 8e 3e 98 d5 68 bf
       -0.20276417 -0.31405225 0.27846488 -0.9095092
0001f0 dd 47 8b bf d8 3a 33 bf 0c 9b 9d 3d 3e 53 c9 3e
       -1.0881306 -0.70011663 0.076955885 0.3932132
000200 c2 15 d0 bd 16 3f 60 3e 60 61 b3 bc 59 cc 04 bd
       -0.101604 0.21899065 -0.021897018 -0.032421444
000210 c4 03 92 be 0b 5f c3 bd 5c e2 14 3e 32 d4 40 be
       -0.28518498 -0.095396124 0.14539474 -0.18830946
000220 2a 2e 2c bf fa cf 97 bf cc 76 36 bf 18 ad 82 be
       -0.6725794 -1.1860344 -0.7127502 -0.25522685
000230 c8 fa 74 bf 7d 30 7c be c3 36 b7 3e 23 04 3e be
       -0.9569516 -0.24627872 0.35783967 -0.18556266
000240 81 0f 51 3f 2e 60 49 3e 01 89 30 3d 1d 55 65 be
       0.8166428 0.19665596 0.043099407 -0.2239575
000250 e4 27 d3 bd ab e5 82 be e4 1b fe be 63 df 26 3e
       -0.10310343 -0.25565848 -0.49630654 0.16296153
000260 bd e0 10 3d 89 6f c7 be ce c4 87 3e a1 99 15 3e
       0.035370577 -0.38952282 0.26517338 0.14609386
000270 ae d5 a2 be 0c 48 c3 be 73 f6 a7 3e 92 24 2f 3e
       -0.3180365 -0.38140905 0.32805213 0.17103794
000280 1c 32 05 be 98 36 57 bd 6f 24 3d be b6 3d f5 3d
       -0.13007396 -0.0525423 -0.1847093 0.11974661
000290 8a de 32 3d ab 95 d2 3d 93 0f 61 3f a9 1d 99 3e
       0.04366926 0.10282453 0.8791439 0.2990544
0002a0 3f e6 f5 3e 6f 98 5f bd 3c aa 3d be 01 44 31 be
       0.48027226 -0.05458873 -0.1852197 -0.17311098
0002b0 4d a5 d0 3d 02 81 d3 bd ad da 1a 3e b8 da 59 bd
       0.101877786 -0.10327341 0.1512248 -0.053187102
0002c0 c0 68 00 3d 07 46 09 3e 03 38 9d 3d af 9c 9f 3e
       0.031349897 0.1340562 0.07676699 0.31174228
0002d0 38 22 0d bf 67 2f 8e bf c9 7b f8 be a2 93 cc 3e
       -0.5513034 -1.1108216 -0.4853194 0.39956385
0002e0 ad aa 2f 3e ab 2d 40 3e 6c 47 0a 3f dd 05 d9 3e
       0.17154951 0.18767421 0.5401523 0.42387286
0002f0 86 6f a9 3e b2 06 3a be 65 77 b4 bc 68 bc fa be
       0.33092898 -0.18166617 -0.022029588 -0.48971868
000300 7b da 55 3e db 75 b5 3e 21 2d c6 bd 15 02 1a bd
       0.20884125 0.3544148 -0.096765764 -0.03759964
000310 9f 3e 42 be 8d 5a 89 be fe cc 4b be bf ea b9 bb
       -0.189692 -0.26826897 -0.19902417 -0.005673736
000320 83 57 b4 3d 63 87 69 be ab 72 07 3e e9 5c 42 be
       0.08805754 -0.22805552 0.13227336 -0.18980755
000330 20 ec 43 3d f0 e2 37 3d e3 68 08 3e 56 f9 ed 3e
       0.04783261 0.04489416 0.13321261 0.4647929
000340 7c 1a a6 3e 3a b1 30 3f 5e 24 ad be 73 c3 01 bf
       0.3244208 0.69020426 -0.33816808 -0.50688857
000350 fb 81 e0 be 37 9c fe bd c3 3c 6c be e6 8b 03 bf
       -0.43849167 -0.12432139 -0.23070054 -0.51385343
000360 71 f8 4e 3f 90 cf 07 3d c4 ab 5b 3f 01 1f 88 3e
       0.8084784 0.03315693 0.8580897 0.26586154
000370 82 e5 d3 bd ae da 21 bf 50 a0 ff be 44 17 02 bf
       -0.103465095 -0.63224304 -0.49926996 -0.5081675
000380 3d a2 68 3e 09 f6 49 be 8a ae bb be 79 a8 66 be
       0.22718139 -0.19722761 -0.366566 -0.22525205
000390 fd 0c e1 bd 13 7d df 3c 02 60 fc bd a3 a9 9d 3e
       -0.109888054 0.02728132 -0.123229995 0.30793485
0003a0 37 8b 68 be 6d 2e 7c be 41 05 e8 bd 8d 1a f5 be
       -0.22709356 -0.24627085 -0.11329127 -0.4787182
0003b0 95 8b 94 bc b7 13 d4 3e 33 93 7f bd 6f 29 17 3f
       -0.018132964 0.4142129 -0.06239624 0.590476
0003c0 8b 6f a8 3e 5e 2c 07 be 63 7c df 3d 8c c5 43 3f
       0.328976 -0.13200518 0.10912397 0.7647331
0003d0 11 20 1e 3f 09 00 36 3f 68 e2 0a be bd 77 13 be
       0.6176768 0.71093804 -0.1356293 -0.14401145
0003e0 b9 fb 10 3e 70 4c e4 be a4 0f 69 be 2a b1 1d bf
       0.14158525 -0.44589567 -0.22759873 -0.61598456
0003f0 fd db 2c bf 6c dc 74 be f6 9e c2 bd a6 f7 c7 bd
       -0.67523175 -0.2391221 -0.09502976 -0.09764032

model.ds_path.3.0.bias f4 [32]
000000 84 42 62 be 8b fb d1 3d e7 60 92 3e da a0 b0 bc
       -0.22095686 0.10253056 0.28589556 -0.021561075
000010 67 21 ba be 88 10 d2 bd c6 ac b2 3e e5 13 a4 3d
       -0.3635361 -0.10257059 0.3489744 0.08011607
000020 ce 1e 9d be 6b ba 89 be 70 1d 14 3e d3 88 01 bf
       -0.30687565 -0.26900038 0.14464355 -0.505994
000030 ff 22 7f be 72 ce f2 bd 0a 26 a0 bd 51 6e c0 be
       -0.24915694 -0.118557826 -0.078197554 -0.37584165
000040 ec 0b 65 bf 29 5d 09 bf d5 84 8d be 30 7b e2 3e
       -0.89471316 -0.53657776 -0.27640405 0.4423461
000050 c2 9d f0 3d 14 9e 93 3e 7f b7 21 be 3e 6c 7b be
       0.1174884 0.28831542 -0.15792654 -0.2455301
000060 51 11 48 3d 8c 02 31 bf 43 72 25 3f 98 1e dc be
       0.04884464 -0.6914451 0.64627475 -0.4299209
000070 37 3f 1c 3e 9b d7 ea 3d c8 16 5d bf c4 d7 c1 bc
       0.1525849 0.11466905 -0.86362886 -0.023662455

model.ds_path.4.0.weight f4 [32, 32, 3, 3]
000000 53 a6 2a bf 37 83 3f bd 3b f7 2a bf 72 9c a9 3c
       -0.6666004 -0.046755996 -0.66783494 0.020704482
000010 f2 07 e3 3d ce 12 cb 3c 04 5a 9e be 84 e2 b2 3d
       0.110855 0.02478924 -0.3092805 0.08734611
000020 aa 74 94 be 2d b5 94 bf 80 6e b1 bd 71 49 49 bf
       -0.28995258 -1.161779 -0.08663654 -0.7862769
000030 47 66 b7 bd 06 bf 3f 3e 86 b3 cb bd 2a c3 69 bf
       -0.08955055 0.18725213 -0.09946351 -0.9131342
000040 22 ca 20 be 95 33 c1 be 7f 14 48 3d a0 da f4 bd
       -0.15702108 -0.37734666 0.04884767 -0.11955762
000050 cd 32 46 be 8d c9 2f 3d d4 e1 a0 bd 28 4b aa 3d
       -0.19355316 0.042916823 -0.07855573 0.08315116
000060 95 02 21 bc 5a a4 24 bd 63 06 7a be aa b9 0f be
       -0.009827276 -0.0401958 -0.24416499 -0.14035669
000070 c7 9a bd 3d c6 20 99 be 08 bb 2b be 5d fc 1c be
       0.09258037 -0.29907817 -0.16770566 -0.15330644
000080 5f c4 30 be e4 c6 83 be 18 ef 4d bd 8c 85 3d be
       -0.1726241 -0.2573768 -0.050276846 -0.18507975
000090 2c ba 79 3e e0 48 a4 bc e8 8b 1a 3f 19 d9 df 3e
       0.24387425 -0.02005428 0.6036973 0.4372032
0000a0 1e ff f3 3e 9c 9e 07 3f 2b 28 35 3f 4e cd b3 3e
       0.47655576 0.52976394 0.70764416 0.35117573
0000b0 69 fa 70 3f 6a 1d d7 bd e0 0b 8d 3e 71 fe fc bd
       0.94132096 -0.10503657 0.27548122 -0.12353218
0000c0 b9 12 4c 3d 12 d4 04 bd 1b 12 a9 be ee 0b 9f be
       0.049822543 -0.03242881 -0.33021626 -0.3106379
0000d0 a4 fb bf 3e 49 29 1e 3e 88 cc 99 bd 37 1e cf 3d
       0.37496674 0.15445437 -0.07509714 0.10113185
0000e0 5c 9d d3 bb d2 e3 a8 bd a3 94 54 3c 5d e1 c7 3d
       -0.0064579677 -0.08246578 0.012974891 0.097597815
0000f0 57 ba ab 3e 23 1b 6d 3e 4e 2c ab 3e e1 09 df 3e
       0.33540604 0.23154883 0.3343224 0.43562225
000100 f4 e3 5a be 12 f8 24 3f 18 92 01 be 8f da 35 3e
       -0.2137602 0.64441025 -0.12653387 0.17759155
000110 92 5a b1 3d 56 9c 46 3e be f4 f0 3d d7 0b 82 3e
       0.08659853 0.19395575 0.11765431 0.25399658
000120 a6 5a 61 3e 18 35 f6 3d fd c8 2c 3e 9d 67 cf bd
       0.22007236 0.120218456 0.16873546 -0.101271845
000130 ff 5f d1 bd db 07 35 be 8e 7d 4d 3c 9a 87 10 bd
       -0.10223388 -0.17678778 0.012542142 -0.03528557
000140 a5 b7 09 be 4e cd 8b 3c eb 0a 97 3e 8c 95 a8 be
       -0.13448961 0.01706567 0.29500517 -0.32926595
000150 31 1c 0d be 57 6a 8d 3d e0 fb 24 3e d0 75 bd be
       -0.13780285 0.06905048 0.16111708 -0.37003946
000160 ba 15 3f be 2d be c0 be db b0 70 3e d8 65 4b 3e
       -0.18660632 -0.37645093 0.23504965 0.19863069
000170 79 d2 a2 3e 75 f8 d8 3c 88 2c c5 bc 59 65 bc 3e
       0.31801203 0.026485661 -0.024069086 0.36796072
000180 dd 09 ed 3e 96 10 4d 3d 76 66 b7 3e a0 c7 b9 bd
       0.46296588 0.050064646 0.3582036 -0.090712786
000190 19 17 15 be 8a 18 99 bd 54 0c b4 3e ce 91 12 3e
       -0.14559592 -0.074753836 0.35165656 0.14313433
0001a0 b4 07 29 3e 46 cb 36 3f ad 00 3a 3e 6d c8 40 3f
       0.16506845 0.7140392 0.1816432 0.75305825
0001b0 d4 4e 70 be dd 2c b9 be 92 08 bc be 36 36 8e 3d
       -0.2346757 -0.3616704 -0.3672529 0.06943934
0001c0 be fa cd bc 26 d8 38 3d e0 72 92 bd 78 2c e7 bd
       -0.025143977 0.04512801 -0.07150817 -0.112877786
0001d0 d6 9c 13 be 34 9f 1a be dc ea 8a be 12 5f 98 bd
       -0.14415297 -0.15099794 -0.27132308 -0.07440008
0001e0 64 a6 0b bd ed 4b 51 bd 15 8a 0f bd 64 45 96 bd
       -0.03409423 -0.0510978 -0.035043795 -0.07337454
0001f0 f1 ab 1b be 85 7e 3c 3e 4a 7f 8f bd c2 cb 49 3e
       -0.15202309 0.18407638 -0.070067 0.19706634
000200 e1 0b 43 be 31 7c 26 3e b4 0a 76 3d 68 c8 57 3e
       -0.190475 0.16258313 0.0600688 0.21072543
000210 88 68 1b be 8b 4a 02 3e 38 61 0f 3e 47 5a 5b bf
       -0.15176594 0.12723748 0.1400193 -0.8568463
000220 1c 76 95 be 1a ae 84 bf fd 9a 13 bf d6 b1 22 be
       -0.29191673 -1.0365632 -0.5765837 -0.15888152
000230 05 d4 39 bf 0d c5 87 bf 3e 29 25 be 15 e5 8e bf
       -0.7258914 -1.060701 -0.16129014 -1.116366
000240 e1 31 a8 be 56 82 86 be c1 e2 7c bf 9a b2 95 3e
       -0.32850555 -0.26271313 -0.987835 0.29237825
000250 43 d3 87 3e 3f 6c 4b bf f8 46 6f bf 21 e1 85 bf
       0.26528367 -0.79462045 -0.93467665 -1.0459329
000260 59 0b 0c c0 0f 61 74 39 33 83 97 bd 93 83 17 bd
       -2.1881926 0.0002330581 -0.07398071 -0.036990713
000270 67 bb 6e bd 51 35 52 3d 19 bc 98 bc 18 4d 04 3e
       -0.05828419 0.051320378 -0.01864438 0.12920034
000280 7e 52 be 3d db 50 2c 3e 48 76 92 be 77 8a 16 3e
       0.09293078 0.16827719 -0.28605866 0.14701258
000290 79 cf 92 be 90 4c 87 be 1b 84 09 bb 2d a9 69 be
       -0.28673914 -0.264256 -0.0020983282 -0.22818442
0002a0 cc e1 89 3e 5e bb 95 3e 0d 4a 32 3e 0d a7 0b be
       0.26930082 0.29244512 0.1741106 -0.13637944
0002b0 5c 18 83 be 26 85 fd be 4a 5c f5 bd 2e fd 6e be
       -0.25604522 -0.49515647 -0.11980493 -0.23338768
0002c0 98 7f 31 be 95 bf fd be 43 d7 26 be 06 51 c9 be
       -0.1733383 -0.49560228 -0.16293053 -0.39319628
0002d0 94 b6 17 be 7a 5e 22 3e d9 bd 7b 3d 9c 47 36 be
       -0.14815742 0.15856352 0.06146035 -0.17800754
0002e0 82 c8 a6 bd bd b3 ea be c1 0a 36 bf f0 8d 6e be
       -0.081437126 -0.45840254 -0.7111016 -0.23296332
0002f0 71 38 11 bf 59 16 05 3f 43 10 52 3e 3f 9b ce 3e
       -0.5672675 0.51987225 0.20514016 0.40352818
000300 ab 54 55 3e 9c ee 46 bd 26 93 48 3d 4f 5d a3 bd
       0.2083308 -0.0485674 0.048968457 -0.079767816
000310 24 3f 06 be 33 a6 cb bd c9 3e c7 3c 29 56 60 3e
       -0.13110024 -0.09943809 0.02432193 0.21907867
000320 b8 ce a6 3e 04 5a 7e 3e aa 68 36 bd 06 b7 fb 3e
       0.3257959 0.24839026 -0.04453341 0.49163073
000330 08 3b 81 3e 04 44 11 3e 79 80 24 3e 4f 61 7e 3e
       0.2524035 0.14186102 0.16064633 0.24841808
000340 7e 2e 37 be 02 cb 82 3e 2f 1d 7c 3e e4 37 0c 3e
       -0.17888829 0.25545508 0.24620508 0.13693196
000350 96 50 22 3e 51 cf 25 be e7 a0 28 be cd 97 a5 3d
       0.15851054 -0.16192366 -0.1646763 0.08085594
000360 f0 4e 80 bd 08 40 8b 3e d8 1f 41 be 6f 47 88 3d
       -0.06265056 0.2719729 -0.18859804 0.0665425
000370 bb 0f c1 3d 0d 22 7e bd b5 a9 2e be 95 7d 55 be
       0.094268285 -0.062044192 -0.17056926 -0.20848687
000380 12 93 55 bd 05 0b 6d be 5e 74 02 bf 8d 81 8d bf
       -0.05214221 -0.23148735 -0.5095881 -1.1055161
000390 93 c6 38 bf b6 65 0d bf 67 00 52 bf 34 09 55 bf
       -0.72178 -0.55233324 -0.82031864 -0.8321717
0003a0 ed 4f 8b bf 26 1a 86 bf 1c 4d 5a bd 41 4f 58 be
       -1.0883766 -1.047673 -0.053296193 -0.21123983
0003b0 a6 7a 2d be 67 db 58 be 20 36 b1 be 51 58 83 be
       -0.16941318 -0.21177445 -0.34611607 -0.25653318
0003c0 b3 4f 0c bf 91 7d 87 3e 63 63 ac bf 5d 4f aa be
       -0.5480911 0.26462987 -1.346783 -0.33263674
0003d0 44 cc b5 be 1a 38 e1 be ea d6 96 be d6 18 39 3e
       -0.35507405 -0.43988115 -0.2946084 0.1807588
0003e0 c2 17 f5 bd 5d 31 54 bf 28 ce f2 bd 78 df e2 be
       -0.11967422 -0.8288782 -0.118557274 -0.44311118
0003f0 fc e7 fb 3e f0 b9 28 3d 19 bc 23 3e 55 af 93 bd
       0.49200428 0.04119295 0.15989722 -0.07211176

model.ds_path.4.0.bias f4 [32]
000000 c7 b0 00 3f 7e e4 0a bd dc 5c bf 3e 5f d1 37 be
       0.5026974 -0.033909313 0.37375534 -0.17950962
000010 c4 ee 72 bf 7c 1d f7 bf 7c 60 54 3f 43 8c 4d bf
       -0.9489558 -1.9305873 0.82959723 -0.8029215
000020 8b c2 66 3e be ff 13 be 3e 55 c2 3e c2 05 da 3e
       0.2253515 -0.14453027 0.3795566 0.42582518
000030 7a 9c a4 3f 3e 5b 87 3e 4e 43 66 be 40 86 25 3e
       1.2860253 0.264368 -0.22486612 0.16164494
000040 77 e8 6d 3f 31 31 03 bc 56 33 ca 3e 6e ee 94 be
       0.9293284 -0.008007334 0.3949229 -0.29088157
000050 b8 c0 83 3f 6c 8d 90 be 02 70 2d bf b7 58 e3 3e
       1.0293188 -0.28232896 -0.67749035 0.44403622
000060 23 cf 99 3d 5a 64 31 3f 06 13 ce 3e ba 68 9a bf
       0.07510211 0.6929375 0.4024889 -1.206321
000070 c2 af f3 3d 56 95 40 be 6e f1 d1 3e 3b 49 50 3f
       0.118987575 -0.18806967 0.4100451 0.8136174

model.us_path.0.0.weight f4 [32, 64, 3, 3]
000000 fb a6 ad 3e 0f e1 60 bd 07 2d d5 bc 43 84 15 3e
       0.33916458 -0.054902133 -0.026022447 0.14601235
000010 5d b8 35 be a4 77 08 bd 63 76 fb 3d 3e d8 2a bc
       -0.1774611 -0.033317223 0.1227844 -0.010427533
000020 c2 46 d6 3d 22 30 53 bf 0e 82 cb 3e 0b f8 25 be
       0.10462715 -0.8249532 0.3974766 -0.16207902
000030 d5 74 e5 bd 2c 4b 49 3f 77 2a 46 be 1d 5b 63 bf
       -0.112039246 0.7863033 -0.19352137 -0.888109
000040 21 57 09 3f 9e b9 b2 be 8b 4b 17 3e e5 20 56 be
       0.53648573 -0.3490724 0.14774911 -0.20910986
000050 fd 10 f3 bd 16 92 36 3e 58 b9 e1 bd 2c 3e 27 3e
       -0.11868475 0.17829165 -0.1102168 0.1633231
000060 9d 8a 38 bd cd 6f d6 bd 8f c8 6d 3e 39 28 55 be
       -0.045054067 -0.10470543 0.23221038 -0.20816125
000070 35 33 e7 bd 7d 10 91 3d 91 ff 22 3d 68 c5 94 3e
       -0.11289064 0.07083223 0.03979451 0.2905686
000080 19 61 6f 3c c7 ca 47 bf 42 e8 f6 3d cd 65 91 be
       0.014610552 -0.7804379 0.120560184 -0.2839798
000090 2e 38 3b 3e ea ba 64 be dd 11 99 be aa b8 81 3d
       0.1828315 -0.22336927 -0.2989644 0.0633405
0000a0 71 d9 9e bd ed a7 7a 3e d5 a8 39 3e 8b 7d 16 bd
       -0.077563174 0.24478121 0.1813081 -0.03674082
0000b0 58 fc 29 be f5 58 75 3f 55 a2 a4 be 02 d7 94 be
       -0.16600168 0.9583886 -0.321551 -0.29070288
0000c0 dd 29 1d 3e ab b4 3d bf bc 56 1b 3d 28 05 2b 3f
       0.15348001 -0.741038 0.037924513 0.6680474
0000d0 11 04 d9 be cf a3 0a 3f 4d 8f f2 be ec 1c a1 be
       -0.42385915 0.541562 -0.47374955 -0.31467378
0000e0 ec 24 f8 be fa a9 02 3f 77 38 2a 3f 2e 10 e8 3e
       -0.4846567 0.51040614 0.6649241 0.45324844
0000f0 a7 21 63 bf 7f 8d de bd 4d d6 eb be 32 c2 b9 be
       -0.88723224 -0.10866832 -0.46061936 -0.36280972
000100 9a 8d b1 3d e7 0e 6f be 2d 8d a6 3d 8d 5e 91 3e
       0.086695865 -0.23345529 0.08132396 0.2839245
000110 1f 57 18 3e e5 9c f7 be 2c 9e a2 bc 2a a0 22 3e
       0.14876984 -0.4836189 -0.019850813 0.1588141
000120 6b e7 2d bf 54 ab 17 3d 2a 34 c2 be 46 d7 f8 3d
       -0.6793124 0.037028626 -0.37930423 0.12150435
000130 56 01 c4 3e ae 9d 24 3e 29 df 16 bd d8 3f c7 3c
       0.3828227 0.16075775 -0.036833916 0.024322435
000140 b5 fb 58 bd 55 36 71 3d 8c 5e bc be d5 00 98 3d
       -0.05297442 0.058889706 -0.36790884 0.07422034
000150 2e 60 4d 3e d7 6f 38 be 86 fd 64 3e dc ce 6b 3d
       0.20056221 -0.18011414 0.22362337 0.057570323
000160 df 4f 6b be 74 4f 85 3e f4 0a 05 be 71 4c 05 3e
       -0.22979687 0.2603718 -0.1299246 0.13017441
000170 ad d0 28 be 09 8e 87 3e c7 1d 98 3e 6b a0 4e 3e
       -0.16485853 0.26475552 0.29710218 0.20178382
000180 f2 24 2e bd b2 94 7a bc 6c ab 61 be 0d cc 10 bf
       -0.042515703 -0.015294241 -0.22038049 -0.56561357
000190 60 3e 19 3e 9e 24 ae be a0 48 aa bd 89 8f 56 3e
       0.149652 -0.34012312 -0.08314633 0.20953192
0001a0 59 83 77 be 74 5a 93 be e3 2c 9d 3e e2 9e 32 3e
       -0.24171199 -0.28779948 0.30698308 0.17443421
0001b0 96 be 44 bf 4b ec 56 3e b1 64 8c bf 6f 60 57 3e
       -0.7685331 0.20988576 -1.0968229 0.2103288
0001c0 52 f9 89 3f 8d 0e c3 3e 84 03 fe be d0 18 25 3e
       1.0779212 0.3809704 -0.49612057 0.16122746
0001d0 b4 a0 98 bf 59 9d 76 3e c7 05 a0 be f1 fc e8 bd
       -1.1924043 0.24083461 -0.31254408 -0.1137637
0001e0 dd 12 ae 3e a2 71 23 be 8c db 9b 3e e2 78 48 3e
       0.33998767 -0.15961316 0.30440938 0.19577363
0001f0 7a 4e 5e be 86 e8 8c 3e 9a 73 ea 3e 62 28 3c be
       -0.21709624 0.2752115 0.45791322 -0.1837478
000200 6a 11 d5 3e 55 61 05 3e 33 0e 7c be 68 22 ea 3d
       0.41614848 0.1302541 -0.24614792 0.11432344
000210 15 80 2d be f2 eb 5b be c6 bc ad bb 73 85 a2 3e
       -0.1694339 -0.21476725 -0.0053020446 0.3174244
000220 cc 25 bf bb cb 7a d4 3e c7 84 f9 bd 25 45 dd be
       -0.005833363 0.41499934 -0.121835284 -0.43216816
000230 eb c5 66 bc 45 e4 42 3e b7 06 9f bd 4c 22 e5 3e
       -0.014085273 0.1903239 -0.07764953 0.4475273
000240 6d f4 06 3e 6c 0e 9b bd a0 91 b4 3e 48 44 c5 bd
       0.13179179 -0.0757111 0.35267353 -0.09632164
000250 eb 80 2d be 8e 64 20 bd 09 ae 95 bd b1 00 73 3d
       -0.1694371 -0.039158396 -0.07308585 0.05932683
000260 35 5a 11 bc 2c 4e 41 be ad fc ba bd 0d e0 96 b9
       -0.008871605 -0.18877476 -0.09130225 -0.0002877716
000270 a2 69 a2 3d 5d 4a f8 bc e3 59 66 3d 4f 6d 13 3d
       0.07930304 -0.030308897 0.056238066 0.035992917
000280 75 e1 a0 bd e0 36 bb bd fe 5c d8 3d 51 20 91 3e
       -0.078555025 -0.09141326 0.10564612 0.28344968
000290 95 93 58 be fd 2c 42 be 3c 52 7b 3e 70 7a 91 bd
       -0.21150048 -0.18962474 0.24543089 -0.07103431
0002a0 c9 30 cc be 48 5c 58 3e 4f ce 0b bf 13 05 3a bd
       -0.3988097 0.21128953 -0.54611677 -0.045414995
0002b0 3e ea b4 bd 6f 44 23 3c 98 8b 58 3e 75 18 a9 3c
       -0.08833741 0.009965046 0.21147001 0.020641545
0002c0 f0 60 c4 bc 14 d1 00 be 8c f0 08 be a8 95 58 be
       -0.023972005 -0.12579757 -0.13373011 -0.2115084
0002d0 04 69 75 bf f7 f2 0c 3f 40 f6 7f be e5 14 e0 bf
       -0.95863366 0.55058235 -0.2499628 -1.7506377
0002e0 78 87 3e 3f 33 39 02 bf bd 34 6a c0 f6 6b a6 be
       0.7442546 -0.5086853 -3.659469 -0.32504243
0002f0 7b c8 d2 bf 8b 94 22 bf 9d 2f bb 3e 69 8f 82 bd
       -1.6467432 -0.6350791 0.36559764 -0.063750096
000300 b0 1a 38 3e 60 f0 ef 3e 29 04 15 3e 9e a1 a6 be
       0.1797893 0.4686308 0.14552368 -0.3254518
000310 fa 1b 58 be 34 28 bc be dd e6 0d 3d 1e 85 61 3d
       -0.21104422 -0.36749423 0.034643997 0.05505859
000320 f9 bf 0e be b5 64 90 be 7f fc 20 be 96 f6 f5 bd
       -0.1394042 -0.28201833 -0.1572132 -0.12009923
000330 1a fe 0f 3e b7 c4 f4 3d bb 68 19 3c d0 5e ad 3e
       0.14061776 0.11951583 0.009363349 0.338614
000340 58 6e e6 be 40 f8 36 3e e2 a6 b9 3d 33 fd 46 bf
       -0.4500606 0.17868137 0.090650335 -0.777301
000350 69 e6 ce 3d 55 be 93 3f c0 da 8a be 6b d5 15 3f
       0.10102541 1.154246 -0.27120018 0.58528775
000360 57 34 52 3f 75 8e e2 be 9c 1e f1 3e 15 a0 ce bd
       0.82111114 -0.4424931 0.47093666 -0.10089127
000370 6d cb 77 bf 92 d1 d9 bc f6 c0 21 3f 49 95 8d be
       -0.9679478 -0.026589189 0.6318506 -0.27652958
000380 27 ba 91 3e ea ee 7b 3f dc 8e 45 be 6b 7f e1 bd
       0.28462335 0.9841143 -0.19292778 -0.11010631
000390 d6 cb 86 be 01 e8 8f bf 26 66 6f be 1b eb 92 3f
       -0.2632739 -1.1242677 -0.2337881 1.1477998
0003a0 fd 97 55 be 23 ea 08 3f ab fd b8 be df 37 9c bc
       -0.2085876 0.53482264 -0.36131033 -0.01906961
0003b0 d1 11 c1 3d b3 10 2b 3e b9 4c 58 3e 83 19 a0 3e
       0.09427226 0.16705589 0.21123017 0.31269464
0003c0 ac d6 84 be 8a 13 8c bd 4a cb ef b9 29 1a ac 3c
       -0.25945032 -0.06839664 -0.00045737094 0.021008568
0003d0 57 b6 8f bd 8f f7 7d be a2 4f 92 be d4 72 1a 3e
       -0.070172004 -0.24801467 -0.2857638 0.15082866
0003e0 f2 6d 92 3d 7c 28 93 be 8e 87 9e 3d 0e 99 0d bf
       0.07149877 -0.28741825 0.07740699 -0.5531167
0003f0 6c 21 1c 3e af da 2a 3e da 69 41 3e 4a b1 90 bd
       0.15247124 0.16684984 0.18888035 -0.07065065

model.us_path.0.0.bias f4 [32]
000000 f9 38 b2 3e 62 7b ad bd 36 c2 49 3e c1 6a f7 3e
       0.34809092 -0.08470799 0.19702992 0.48323634
000010 e3 88 e3 3e 27 bf aa bd a2 71 9a bf 55 6f df be
       0.44440374 -0.08337241 -1.2065928 -0.43639627
000020 44 33 99 3f 99 f4 69 3f 67 b3 ce bd 22 91 44 3e
       1.196877 0.9138885 -0.10092812 0.19195989
000030 36 50 ee 3e 95 16 6e 3f 12 c6 77 3f 48 d9 5d 3f
       0.4654557 0.9300321 0.96786606 0.8665967
000040 71 57 c8 3f 7f 21 64 3e 91 19 c8 3f 6f 49 7c be
       1.5651685 0.22278403 1.5632802 -0.24637388
000050 29 d1 57 be ea 8a 3f 3f 96 36 da 3e 8b c2 db 3f
       -0.21075882 0.7482134 0.4261977 1.7168745
000060 b6 0b a7 3f 0c 89 f4 3f 7c ad a9 3e 02 73 9a be
       1.3050449 1.9104323 0.3314017 -0.3016587
000070 9a 19 ad 3f 85 7b 86 3f 21 d0 00 3f 92 a9 77 3b
       1.3523438 1.0506445 0.5031758 0.003779028
